model/model.pth (torch, 17111 bytes, 4 tensors)

linear1.weight f4 [256, 11]
000000 f7 6c 2b bc cd b0 92 3e 82 7a 36 3d 82 e9 9d 3e
       -0.010462991 0.28650513 0.044550426 0.30842215
000010 89 9d 41 3d 4e 73 5d 3e 01 a7 b6 be ce fd 0e 3e
       0.047269378 0.21626016 -0.3567429 0.13964006
000020 ea ff b3 bd 03 27 e7 bd a1 62 49 3e 01 f5 54 3e
       -0.08789046 -0.11286738 0.1966653 0.20796587
000030 c5 22 3f 3f ed ab c1 be 8d 01 2c 3e 07 4e da 3d
       0.7466243 -0.3782648 0.16797467 0.10659414
000040 66 80 c0 3d ab 95 f1 3d 4e 12 b5 3e 07 83 82 be
       0.0939949 0.11796125 0.35365528 -0.2549059
000050 26 69 11 bd 35 30 53 be 12 c8 2f 3f d2 b6 16 be
       -0.035500668 -0.20623858 0.6866466 -0.14718178
000060 61 52 87 3e 53 d3 3b 3e d4 f8 d1 bb 08 82 5c 3e
       0.26430038 0.18342333 -0.0064078365 0.21533978
000070 e2 71 33 ba af c4 6b be 8e f7 09 be e9 a3 00 3e
       -0.0006845278 -0.23024248 -0.13473341 0.12562527
000080 ab e1 99 bd 24 8a 3e 3f 1b 41 12 3f 06 1d 91 3d
       -0.07513746 0.74429536 0.57130593 0.07085614
000090 c7 a1 2c be aa 53 1b be d2 26 cf bd 58 05 6a be
       -0.16858588 -0.15168634 -0.10114826 -0.22853601
0000a0 21 89 fd 3d f6 0b ec 3d 53 ca af 3d f1 cd ea 3d
       0.12379671 0.11525719 0.08583512 0.114650615
0000b0 25 8b 46 be 82 75 14 3f 62 53 5c 3f bf fc 93 3e
       -0.19389017 0.579918 0.8606473 0.28903767
0000c0 d1 3b c7 be 6c b3 a1 3e 21 f0 01 3f db d9 f2 3e
       -0.38912824 0.315822 0.5075703 0.47431836
0000d0 37 35 a3 3b 4d e7 d5 3d d7 9a 8b be a5 2f 96 3d
       0.004980709 0.10444508 -0.2726657 0.07333306
0000e0 14 0f 6e 3f 50 09 a1 be 50 fe 25 3e 72 23 2c be
       0.9299176 -0.31452417 0.16210294 -0.16810396
0000f0 45 c8 1e 3d 16 57 9e 3c b2 af 62 3e 53 dc ba be
       0.03876521 0.019328635 0.22137335 -0.3649622
000100 e6 47 ad 3d d7 9f d4 bc e3 b0 98 3e a5 87 6f 3f
       0.08460979 -0.025955124 0.29822454 0.9356635
000110 6d 12 f3 be a0 f5 7b 3c 0d 0d 97 3c 59 d4 30 be
       -0.47474995 0.015378386 0.01843884 -0.17268504
000120 f2 18 23 3e 8e ca 34 bd 16 cd c7 be 27 c5 46 3d
       0.15927485 -0.044138484 -0.39023656 0.048527863
000130 43 d1 3c be fd 4b 40 be 5f 5c a8 3e 44 fa c5 3e
       -0.18439202 -0.18778987 0.32882974 0.386675
000140 ec c1 d7 3e 0b 19 97 3e dd 94 e8 3d c7 c2 a5 3e
       0.42140138 0.29511294 0.113565184 0.32375166
000150 27 6f b5 3d 22 d4 1d be 30 d6 42 3f d4 a0 d1 3e
       0.08859091 -0.15412953 0.76108074 0.40943015
000160 9c bb de 3d 7c 33 30 3e 5f 48 bb be 79 83 1d be
       0.108756274 0.1720714 -0.36578652 -0.15382184
000170 1a 42 95 be 90 1e 82 3e e5 d7 d2 3d eb 85 6e 3c
       -0.29151994 0.25413942 0.10295085 0.014558296
000180 5f bc f5 be de a8 60 bd af f4 60 3b 54 66 bc 3e
       -0.47995278 -0.054848544 0.003432553 0.3679682
000190 17 ec 97 be fa 77 23 be 82 42 8d 3e c6 20 47 be
       -0.2967231 -0.15963736 0.27589804 -0.19446096
0001a0 62 36 6a 3d c6 46 d4 3c c8 a5 d1 be e9 ab 48 bd
       0.05718077 0.025912654 -0.40946794 -0.04899207
0001b0 65 4c 51 3e 97 34 1c 3e 4f 41 0a 3f 7c 12 38 3f
       0.20439298 0.15254436 0.54005903 0.71903205
0001c0 47 d4 4f 3e 55 db 0d 3d 63 76 9f bd d3 ca 98 3d
       0.20295821 0.034633 -0.07786252 0.07460561
0001d0 eb 2f a7 bd 2d e1 6f bd af 56 5d be 74 bd 2c 3e
       -0.081634365 -0.058564354 -0.21615098 0.16869146
0001e0 c7 1a ca 3d 82 80 39 be e0 2b 08 3e 00 d9 c1 bd
       0.098683886 -0.18115428 0.13297987 -0.094652176
0001f0 a2 b7 13 be 37 2d ec bd 1e 20 01 bd 37 8c 5c 3e
       -0.14425519 -0.115320615 -0.03152477 0.21537863
000200 da 9e b5 3e 87 0a 0e 3e ee a5 16 3f a2 8b cb 3e
       0.35472757 0.13871203 0.5884694 0.3975497
000210 85 dc 8e be b2 18 85 bd a8 09 4f bd 01 2e d8 3e
       -0.27902618 -0.06498851 -0.05054632 0.42222598
000220 f3 33 0a 3d 1b c4 31 3e c1 b7 a8 bd 8b 9a d2 be
       0.03374095 0.17359965 -0.08238173 -0.41133532
000230 13 46 f4 bc 68 b3 e4 3e 35 07 11 3e 7d 31 5f 3f
       -0.02981857 0.44668126 0.14162906 0.8718489
000240 ed ba 4f 3f d9 3c b3 bd dd 81 49 3d 96 9c 94 bd
       0.811446 -0.0875184 0.049196113 -0.07256429
000250 d4 89 8e 3d 4c 7f 06 3e b2 b0 11 be 17 85 62 be
       0.069598824 0.13134497 -0.1422756 -0.22121082
000260 36 38 27 3e eb 22 97 3d c0 67 1e 3f b8 63 2a 3e
       0.16330037 0.07379707 0.6187706 0.16639602
000270 b4 02 43 3d ef d1 cc bd 2a 65 0a 3e 78 da 47 3d
       0.04761 -0.10000979 0.13515154 0.048792332
000280 44 22 30 3e 65 5f cb 3b 6d 75 82 be 2e d2 f4 bd
       0.17200571 0.0062064403 -0.25480214 -0.11954151
000290 00 b8 e8 bc 49 b0 3b 3f 3d 65 c4 bc 8a 90 62 be
       -0.02840805 0.73315865 -0.023974055 -0.2212545
0002a0 64 15 4a 3e 02 1a 07 3e f3 a4 91 be 02 74 28 3d
       0.19734722 0.13193515 -0.2844616 0.04112626
0002b0 a1 6e de bd 48 9a 8c 3d ec 5a 09 3e e6 e7 49 be
       -0.108609445 0.06865364 0.1341359 -0.19717368
0002c0 2e 7f 7a be 0a 76 22 bf 8b 18 06 be 25 de e0 bc
       -0.24462578 -0.63461363 -0.130953 -0.027449677
0002d0 98 e7 7a 3d 6f 23 8d 3d 21 11 c6 bb 0c 75 d7 3e
       0.06125602 0.06891524 -0.0060445224 0.42081487
0002e0 b3 ef ec bc cb b8 38 3f 47 0f 37 be 06 ec 58 be
       -0.028922891 0.7215697 -0.17876922 -0.21183786
0002f0 20 c6 fb be 31 1b 2e 3f 93 b1 80 3e be 67 b0 3d
       -0.49174595 0.6801024 0.25135478 0.08613537
000300 62 41 90 3c 18 60 dd 3d d4 f4 17 be f0 14 09 bd
       0.017609302 0.10809344 -0.14839488 -0.033467233
000310 34 ad 4d bc 55 f7 06 be ca 0f 12 3f d3 0c 2d 3f
       -0.012553502 -0.13180287 0.5705534 0.67597693
000320 c0 df de 3e 33 6e 8c 3b 3f f9 4c be 5d fc 45 be
       0.43530083 0.0042855977 -0.20016955 -0.1933455
000330 c6 94 b6 bd a5 a2 44 3e b6 b0 b2 3d 67 be a3 3e
       -0.08915095 0.19202669 0.08725111 0.31981203
000340 3e 7b 30 3e a7 06 aa 3e 25 69 63 3f 08 47 df be
       0.17234513 0.332082 0.8883231 -0.4360888
000350 9d 73 33 3d f9 96 9c 3c 53 40 89 3b a6 b4 ad be
       0.04381143 0.019114958 0.0041885762 -0.33926886
000360 4d 94 7b 3e 5e ec f5 be 64 8d 03 3c 9f bb 97 3c
       0.24568291 -0.48031896 0.008029316 0.018522082
000370 93 48 d9 3d 64 8f 6e 3e 73 50 45 be 51 d4 43 bd
       0.106095456 0.23296887 -0.1926897 -0.047809903
000380 41 17 15 bc 51 89 d0 bd 01 b9 19 3e a3 aa 53 bd
       -0.009099782 -0.10182441 0.1501198 -0.051676404
000390 e7 d9 93 3d 2b 48 67 be ee 3b b7 bd e5 59 ad be
       0.07219296 -0.22586124 -0.089469776 -0.33857647
0003a0 e0 3e 58 3f 5c d4 ee 3d 43 51 9f 3e df a3 89 3e
       0.8447094 0.11661598 0.31116685 0.26882836
0003b0 8c eb 09 3e fb b4 e7 bb 82 15 c1 3e 76 65 2a 3d
       0.1346876 -0.007071135 0.37711722 0.041600667
0003c0 e2 f3 74 3e 8d eb e3 3d ef 06 0b 3f 5b 22 0d be
       0.23921159 0.11128912 0.54307455 -0.13782637
0003d0 37 f9 05 be d0 dc ca be ba 6d d0 bd 52 cd ba 3d
       -0.13083349 -0.39621592 -0.10177179 0.09121193
0003e0 fa ff b8 3b 28 61 8c 3e 14 c8 21 3e df 96 3e be
       0.005645749 0.27417874 0.1579898 -0.1861224
0003f0 97 49 8d 3e 30 8b 42 bd f0 41 5e bd 9c 78 25 3e
       0.27595207 -0.04749602 -0.0542621 0.1615929

linear1.bias f4 [256]
000000 12 8f c4 be 7a 7a 8a 3d 2f cf 17 be 7d 40 df bd
       -0.38390404 0.06761642 -0.14825128 -0.10900972
000010 e8 87 0c 3e 48 4f 3a 3e 4e 9e 95 3e 9a cb 89 3f
       0.13723719 0.18194306 0.2922234 1.0765259
000020 4b 2e 55 3e 66 1e 28 3e 62 bd bc bd a2 ff 04 3f
       0.2081844 0.16417846 -0.092158094 0.51952565
000030 60 6f 07 3e 6b 1d b1 3b 37 6f 8e 3d 7c cf 4b be
       0.1322608 0.005405118 0.06954806 -0.19903368
000040 5f 7f 35 3e d7 b7 ca 3e 39 d7 86 be 99 01 1a 3e
       0.1772437 0.39593384 -0.26336077 0.15039672
000050 42 e9 ca bd e9 26 40 3f 5c e7 a0 bd e0 7f 71 be
       -0.09907772 0.7505937 -0.07856628 -0.23583937
000060 16 52 04 be 6d 7b 29 be 5a d4 69 3e 41 02 a1 be
       -0.12921938 -0.1655099 0.22834912 -0.31447032
000070 0b 97 31 3f 55 d9 50 3e a7 d8 0c 3e 77 86 f6 3e
       0.693711 0.20395406 0.13754521 0.48149464
000080 7e b0 19 3f d5 41 44 3e 11 ec 78 bd 5f 11 76 be
       0.6003493 0.19165738 -0.060772005 -0.24030064
000090 eb 3e 76 be e5 2c 8d be 59 81 c6 3e a7 a0 2a 3f
       -0.24047439 -0.27573314 0.3877056 0.66651386
0000a0 92 ac 99 3f 07 10 3e 3f 04 a2 00 be 09 2e 68 be
       1.2005789 0.74243206 -0.12561804 -0.22673811
0000b0 3a 44 57 3a 90 62 e8 3e fc 63 38 be 59 7d 43 3e
       0.00082117657 0.45387697 -0.18006891 0.19090785
0000c0 da f2 18 bd 6b 05 13 3f 4f 58 45 be a0 33 1c 3c
       -0.037340976 0.5743014 -0.19271968 0.009533793
0000d0 60 6f a9 3e e7 7b a0 3e 43 1f 98 3d f8 f6 65 3e
       0.33092785 0.3134453 0.07427838 0.22457492
0000e0 4f e8 83 3e d7 44 a6 be 1f c0 a4 3d 88 c0 02 bd
       0.25763175 -0.32474396 0.08044457 -0.031921893
0000f0 13 72 89 bd f7 49 0a be 43 9e 90 bd b4 d9 30 3f
       -0.06711211 -0.13504778 -0.07061436 0.6908219
000100 5c a6 22 3e 50 61 42 be 41 a5 e9 3e f7 64 36 3e
       0.15883774 -0.18982434 0.4563389 0.17811953
000110 03 1b 93 bd d0 07 ff bd a2 d2 89 be f0 00 13 3f
       -0.071828865 -0.12452662 -0.26918513 0.57423306
000120 b9 76 e7 3e 87 b0 24 3d 52 e0 ca 3d ca 90 55 3f
       0.45207766 0.040207412 0.09906067 0.83424056
000130 4c a4 92 bd 6a 15 75 be 56 81 b2 3e 4b 23 3c 3d
       -0.071602434 -0.2393395 0.348643 0.045932095
000140 65 ad 00 3f 26 4a 9b be 76 39 95 3d ae 25 e7 3d
       0.5026458 -0.30330008 0.072863504 0.11286484
000150 1a e9 0d 3f 4a b1 a4 3e e2 3d ba be be ee 2f bd
       0.5543381 0.3216651 -0.36375338 -0.04295229
000160 91 92 84 3d e3 a2 25 3f 9d 5f 45 be 82 29 56 bd
       0.06473268 0.6470167 -0.19274755 -0.05228568
000170 03 15 6f 3d da 54 b8 3e 2f 7a 21 bd af ea 33 be
       0.058369648 0.36002237 -0.039423164 -0.17569993
000180 3a b2 8c bc 20 75 a3 3e 68 6f 82 be 8d 3f d4 3e
       -0.017174829 0.31925297 -0.2547562 0.41454735
000190 88 d8 0a 3f 64 74 03 bd 8b 0a cc 3e 44 f4 3f 3f
       0.5423665 -0.03209342 0.39851794 0.74982095
0001a0 f9 88 94 bd 0b 0e 07 be 58 1d 0e bc 71 29 25 be
       -0.07252688 -0.1318895 -0.008673988 -0.1612909
0001b0 58 e2 18 3f 33 e1 9e be d4 5f 7f 3e 89 86 31 be
       0.59720373 -0.31031188 0.249389 -0.17336477
0001c0 3a 4e db 3d 65 c1 5c 3e 16 82 15 3e da 9e 03 bd
       0.1070828 0.21558149 0.14600405 -0.032133915
0001d0 c9 83 a1 be 71 ca 9c be 5b 82 c4 be 5f c1 89 be
       -0.31545857 -0.306232 -0.38380703 -0.26905343
0001e0 71 bb 8a 3e e7 1e 98 3d 7b 1c 4b 3f 69 67 16 be
       0.2709613 0.07427769 0.7934033 -0.14687885
0001f0 97 ae b3 bd 9b bb f6 3e d6 9b 24 be f8 c1 19 3f
       -0.08773535 0.48190007 -0.16075072 0.600616
000200 59 11 a6 3e 25 41 57 3e fe 42 4b bc 5d d9 2f 3e
       0.3243511 0.21020944 -0.012406109 0.17172761
000210 ff a8 bf 3e 4a 6e 0f 3d 88 56 8d 3f 2b 8d fd bd
       0.3743362 0.03501729 1.1042032 -0.12380441
000220 39 7d 80 be 99 7e d0 3e bc 11 a8 3e 5c c5 d5 3c
       -0.25095537 0.40721586 0.3282603 0.026095085
000230 6e f4 4f 3d 96 17 02 bd 6e 63 28 be 53 8b 55 3f
       0.050770216 -0.031760775 -0.1644418 0.83415717
000240 f3 02 90 3d 64 50 5a 3e 6d b8 81 3e 77 41 07 3e
       0.070318125 0.21319729 0.25336018 0.13208567
000250 09 0c 1e 3e 51 c7 f3 bc f0 ce 18 3e 5d 4f 59 3e
       0.15434279 -0.029758127 0.1492269 0.21221681
000260 93 16 76 3d 8a 36 4c 3f 5d 91 e3 3e 15 c4 00 be
       0.060080122 0.7977072 0.4444684 -0.125748
000270 0e 0a 3c bd 42 54 00 be c9 30 b6 3e 3b ae c6 3e
       -0.045908026 -0.12532142 0.35584095 0.38804802
000280 a0 1a c2 3e 47 02 02 3e 26 d7 2a 3f 4b eb 60 be
       0.37910938 0.12696181 0.6673454 -0.21964757
000290 7a 47 8f be 89 1d 93 be 35 84 03 bd 17 a8 bc 3e
       -0.2798422 -0.2873347 -0.032108504 0.36846992
0002a0 72 93 2e 3d ee 2a 40 be 22 49 b7 3e bf 8f 3e 3e
       0.042621084 -0.18766376 0.35797983 0.18609522
0002b0 3f 75 93 bd 5e 89 22 be a4 c0 b8 3e d1 db 90 3d
       -0.07200097 -0.15872714 0.36084473 0.07073177
0002c0 87 db 1b 3e bb 7a 19 be b1 d4 2f 3e 44 a9 92 3e
       0.15220462 -0.14988224 0.17170979 0.28644764
0002d0 f7 3c c2 3e e5 4a e0 3e 21 63 2d 3e 92 c6 fe 3e
       0.37937137 0.4380714 0.16932346 0.49760872
0002e0 34 22 c6 bb 91 41 40 3e c4 d7 3d 3d da e2 42 3e
       -0.006046558 0.18775012 0.04634835 0.1903185
0002f0 9d 6a 43 bd fe 2f 4b be 5f 4c d9 3e 9a b6 e9 3e
       -0.047709096 -0.19842526 0.4244108 0.45647126
000300 7f 61 89 be 7c 20 af 3e 1e a5 a2 be 9b ec 36 be
       -0.26832196 0.3420447 -0.317666 -0.17863695
000310 c5 48 a1 3d ca e4 7a 3e 7d 40 34 be 10 bc 2f 3e
       0.07875208 0.24501339 -0.17602725 0.17161584
000320 6f cd 1a 3e bd 45 07 be 5b 18 22 be a5 7c e7 3e
       0.15117429 -0.13210197 -0.15829603 0.45212284
000330 ca e6 3a 3e a9 2a 18 be ae 25 b5 3d 40 ba 0d bb
       0.18252102 -0.14860024 0.088450775 -0.0021625906
000340 98 4e 8b be 00 c3 45 be e9 9c 6a 3e 59 dc b1 3e
       -0.272084 -0.19312668 0.22911419 0.34738424
000350 73 b4 ca 3d 20 c3 98 3f 67 9d 62 3e f2 f9 5a be
       0.09897699 1.1934547 0.22130357 -0.21384409
000360 d8 76 28 be f6 9c 07 be 9d 8d 8e be 95 de 88 3d
       -0.16451585 -0.1324347 -0.27842417 0.06683079
000370 30 9c da bd 1d a5 d5 bd e3 7c 4c bd f2 f1 05 3f
       -0.10674322 -0.104318835 -0.04992379 0.52322304
000380 87 c7 61 3c 00 c2 98 bd 29 83 7b 3e b2 33 1f 3f
       0.013780481 -0.074588776 0.24561752 0.62188256
000390 54 c2 6f 3e 3e 2b ef bd 93 80 d6 3e 24 13 b2 be
       0.23413974 -0.1167817 0.4189497 -0.34780228
0003a0 23 7f 7a be 0e 6b 9c 3c c3 4b c5 3d e7 5b 3b 3f
       -0.24462561 0.019094016 0.09633591 0.73187107
0003b0 f0 57 d9 3d d7 0d 40 3e 55 a7 c3 3e 3d 5d 8d 3d
       0.10612476 0.1875528 0.38213602 0.069025494
0003c0 43 1e 90 be 53 a7 a1 3e 0c c9 b1 3e c1 34 66 3e
       -0.28148088 0.3157297 0.347237 0.22481062
0003d0 f6 44 3c 3f 11 02 81 be 80 d1 b7 3e 47 31 b1 be
       0.73542726 -0.2519689 0.35902023 -0.34607908
0003e0 71 94 63 3d 2f bf 9a be 13 e6 87 3e ec 43 e4 3e
       0.055561487 -0.30223987 0.2654272 0.4458307
0003f0 7c 03 51 3e 2c aa b5 3c 1b 78 8d be 08 b4 37 be
       0.20411485 0.02217587 -0.27630696 -0.1793977

linear2.weight f4 [3, 256]
000000 c1 5c 05 3b 3b cf 93 3c ab 82 a0 bb 10 6e 42 be
       0.0020349475 0.018043151 -0.0048983893 -0.18987298
000010 61 5c 9a 3e 90 53 b7 3d 45 cb 77 3d 90 c9 a3 3e
       0.30148605 0.08951485 0.060496587 0.31989717
000020 a2 a6 6f 3d 0b 02 e4 3d d2 de 5a bd fe fa 8b bd
       0.058508523 0.11133202 -0.053435154 -0.06834982
000030 3f 9c a5 3e 47 e0 18 be 26 70 59 3c f6 80 97 be
       0.3234577 -0.14929305 0.013271367 -0.29590577
000040 48 c0 c8 be a8 81 b8 3e 78 49 ef 3c 66 b5 15 bd
       -0.392092 0.3603642 0.029209837 -0.03654995
000050 32 31 8f 3c 2d 88 b2 3e 23 95 4e be c0 7e 31 3c
       0.017479513 0.3486952 -0.20174079 0.010833442
000060 1b 75 22 3e 2c d3 79 3d 2f 6f d7 3e 51 c1 47 3c
       0.15864985 0.060992405 0.42077014 0.012192086
000070 8e 5b 99 3e e7 b5 a4 3d 3e ea 6f 3e 75 75 9e 3e
       0.29952663 0.080425076 0.234292 0.30948988
000080 f7 f2 95 3e c2 ff 77 3d 3c c0 23 bc 68 ea 15 bb
       0.2928693 0.060546644 -0.009994563 -0.0022875313
000090 94 7e 04 bd 17 9d 63 be e2 08 93 3e 33 7e d5 3e
       -0.032347277 -0.22227894 0.28717715 0.41697845
0000a0 b0 ef d2 3e aa f5 cc 3e be df 38 3d 85 fe c4 bd
       0.41198492 0.40031177 0.045135252 -0.09618858
0000b0 e9 e9 9e bd 3e 62 6a 3e f9 7d df bd a1 71 09 3e
       -0.077594586 0.22889039 -0.10912699 0.13422252
0000c0 70 a3 91 3b 3e 99 35 3e ae 53 4c bd 0d d1 38 be
       0.004444532 0.17734239 -0.04988449 -0.18048497
0000d0 15 57 73 3e 28 0a 4f 3e 36 07 d3 3c 3e 03 81 3e
       0.23763688 0.20218718 0.025760274 0.25197786
0000e0 7c 75 c1 3e 30 1a 3c be 4e 17 e0 3a d0 87 12 3d
       0.37784946 -0.18369365 0.0017096789 0.035774052
0000f0 83 a7 1e 3e 47 8d 11 3d 85 d1 2b 3e ac 29 b3 3e
       0.15493588 0.035535123 0.16779144 0.3499273
000100 fa 8b 61 3e 76 a5 cc 3d d7 71 80 3e 57 1b c3 3e
       0.22026053 0.09992497 0.25086853 0.38106796
000110 d5 d7 aa bb a4 61 91 be 1a c3 15 3d 50 90 7f 3e
       -0.0052137175 -0.28394806 0.036563016 0.24957395
000120 30 df 73 3e 05 fc 45 3d 9f 4c f5 bb ac ab d2 3e
       0.23815608 0.048336048 -0.0074859406 0.411466
000130 71 1e 51 bc 4d 8f 72 3c 60 58 ba 3e dc 76 41 bd
       -0.012763605 0.014804673 0.3639555 -0.047232494
000140 24 89 90 3e 86 55 30 3d 8d b0 23 be d6 c9 b1 3e
       0.2822963 0.04305031 -0.15985318 0.347243
000150 fb b3 21 3e 56 68 91 3e d4 90 9f 3d 75 83 eb bc
       0.15791313 0.28399915 0.07791296 -0.028749207
000160 27 2e 49 3b 33 c7 6d 3e fd f4 d4 bd cf 07 4e bb
       0.0030697675 0.2322052 -0.1039829 -0.003143776
000170 df 9f 0c 3e a2 1d b4 3e ee 47 bc 3e b4 0a 84 be
       0.13732861 0.35178858 0.36773628 -0.25789416
000180 a3 76 85 3c 9d 8e 74 3e 07 6d f7 3b 38 dd f4 3e
       0.016291922 0.23882528 0.007550839 0.47825027
000190 95 f6 c8 3e 73 74 38 3d 38 f3 a2 3e dc d8 b4 3e
       0.39250627 0.04503293 0.31826186 0.353217
0001a0 8f 35 59 be 81 eb 31 be dc da 53 bc 65 34 b3 bc
       -0.21211837 -0.17374994 -0.012930598 -0.02187557
0001b0 43 d9 c4 3e 94 be 13 3d 08 09 b8 3e 1e 30 47 3c
       0.38447008 0.03607042 0.3594439 0.012157468
0001c0 90 9f 8a bd d6 6c 46 3e 82 75 a0 3e 2e 62 24 3d
       -0.067687154 0.19377455 0.3133965 0.040132694
0001d0 68 67 28 bd 23 0c dc bd d6 27 51 be 50 7f 00 3c
       -0.04111424 -0.107445024 -0.20425352 0.007842854
0001e0 6d 4b e8 3e 35 e9 b8 3e cc 1d d5 3e 80 f9 14 be
       0.45370045 0.36115423 0.41624296 -0.14548302
0001f0 e7 86 0e 3e 27 dc d1 3c 89 dc 89 be 27 24 c6 3e
       0.13918649 0.025617672 -0.26926067 0.38699457
000200 61 e9 40 3d 47 6a 08 3e cb da 9f 3d 8d b4 8d 3e
       0.047097567 0.13321792 0.07805403 0.27676812
000210 50 63 2d 3e 75 3b ad 3e 23 48 d4 3e b3 62 3a be
       0.16932416 0.33834425 0.41461286 -0.18201713
000220 84 f3 94 bb 79 60 7b 3e 68 ea 5f 3e e5 62 8c 3d
       -0.004545631 0.2454852 0.21866763 0.068548
000230 7d 7f 77 3e da 9f 78 bd 6a f7 54 be 04 54 d5 3e
       0.24169727 -0.06069932 -0.20797506 0.4166566
000240 f8 9e 09 3e 1e 1e 80 3e 95 c8 28 3e a9 aa d4 3d
       0.13439548 0.25022978 0.16482766 0.10384113
000250 61 ac a7 3e fd 9b 45 3d 02 14 af bd 76 57 b0 3e
       0.32748702 0.048244465 -0.08548738 0.34441727
000260 cb 06 2c 3e f2 1b 88 3e ad bb 03 3d 2c ab 6a 3e
       0.16799466 0.2658382 0.032161403 0.2291686
000270 94 4f bd bd b2 89 be 3c ff 81 0a 3d 4a 0e ae 3e
       -0.09243694 0.023259018 0.03381538 0.33995277
000280 cd b8 8c 3e 85 0a 71 bc be 67 82 3e 94 5e 46 bd
       0.27484742 -0.014711981 0.25469774 -0.04843004
000290 10 2e f0 bc 07 77 99 3d 74 3a d5 bd 33 72 b7 3e
       -0.02931884 0.07493406 -0.1041154 0.35829315
0002a0 86 ab b7 3e e2 4c ef ba 73 99 a7 3e d2 9d 8d 3e
       0.3587305 -0.0018257166 0.3273426 0.2765947
0002b0 64 63 8d be ec fb c3 3b 5e 44 bd 3e f2 0a 81 bc
       -0.27614892 0.005980959 0.36966223 -0.01575229
0002c0 f3 d8 92 3e c5 a0 3b be e9 c5 0a 3e 95 d2 32 3e
       0.28681144 -0.18323047 0.13552059 0.17463143
0002d0 9c 0e c4 3e dc 70 c3 3e 1c 35 32 bd a9 1c f1 3e
       0.38292396 0.38172042 -0.04350768 0.47092178
0002e0 2b b8 68 bc 5d a9 6c bd c3 16 c1 bd 94 8b 88 3d
       -0.014204065 -0.057778705 -0.094281696 0.066672474
0002f0 d7 21 16 be 2b bc ac 3d e7 e4 90 3e db 2c a4 3e
       -0.14661346 0.08434328 0.2829964 0.32065472
000300 a1 58 68 bb 0e 3c 80 3e 5f de db bc da 7b ed 3c
       -0.0035453218 0.25045818 -0.026839433 0.028989721
000310 b9 af 4f bd 2c 47 ac 3e 26 fe cb 39 ea dc 6d be
       -0.05070469 0.3364805 0.00038908533 -0.23228803
000320 b5 7d b5 bd 58 2b 4e 3e af b1 5b 3e 21 5a 8c 3e
       -0.08861867 0.20133722 0.214545 0.27412513
000330 48 c3 a0 3d 03 40 07 be 6c 34 cd 3e b4 25 8c bd
       0.07849747 -0.13208012 0.40079057 -0.06843129
000340 e2 dc 9f be f1 37 3a be b0 91 30 3e 80 2c 98 3e
       -0.31223208 -0.18185402 0.17243075 0.2972145
000350 af 7c 87 3e 03 dc bd 3e c0 7b b7 3e 8c ce 4d bc
       0.26462314 0.37081918 0.358366 -0.012561452
000360 c0 4d 7e bd 29 e9 1a 3d 33 8e e5 bc a5 53 aa bc
       -0.062085867 0.037820015 -0.028021907 -0.020791838
000370 4d 42 a1 bd af d0 0a 3e 68 26 90 bd e5 a1 97 3d
       -0.07873974 0.13556169 -0.070385754 0.07403926
000380 9d e4 2d 3d a6 c9 4b bd dc 2f e7 3e 97 04 84 3e
       0.04245435 -0.049752854 0.451537 0.25784752
000390 2e 54 be 3e 6f 39 22 3e 96 3c 9a 3e 10 4e bc 3b
       0.371736 0.15842222 0.30124348 0.0057466105
0003a0 67 26 41 be 3a 85 08 3e 94 c3 20 3e 5f 8e e9 3e
       -0.18862306 0.13332072 0.15699607 0.45616433
0003b0 dc 2a a6 3e 5c e9 8f 3d ae 2b ad 3e a4 0b 16 bd
       0.32454574 0.07026932 0.33822387 -0.036632195
0003c0 9c 60 c0 bc b6 73 38 3e 0e 66 be 3e 3a a8 15 bc
       -0.023483567 0.1801289 0.37187237 -0.009134347
0003d0 d5 d2 ef 3e 48 cc 8d bb 42 c4 d0 3e ff 8c 8f 39
       0.4684054 -0.0043273307 0.40774733 0.00027380136
0003e0 db 1a f1 3d f4 4b 71 bc da 47 8a 3e 52 b3 df 3e
       0.117727004 -0.014727581 0.27007943 0.43691498
0003f0 e0 29 1a 3e ee c1 ea bd 81 93 d4 3c a2 a8 17 bc
       0.15055037 -0.114627704 0.025949242 -0.009256514

linear2.bias f4 [3]
000000 87 43 7f 3e e7 df 48 3d c0 28 4a 3d
       0.24928103 0.049041655 0.04935527
