model/model.pth (torch, 17111 bytes, 4 tensors)

linear1.weight f4 [256, 11]
00000000: 1705 78be b076 01bd 97aa 693e 1603 07be
00000010: ea74 853e 8e9e f8bd 8c44 9e3d c30f 1fbd
00000020: 602a 10bd 31e7 85be 4617 143e 7cab c8bd
00000030: d6cb 59be e0c2 063c 581a 653e c4e8 35be
00000040: 8c82 3fbe eec5 893e 72dd 45be 2fd8 26be
00000050: eb78 53be 408b 81bb 1d80 2c3e bc1d efbd
00000060: 45ac dfbd 0558 2ebe 1eca e8bd c891 7dbe
00000070: 963c 873e 85ff 96be dc7b 7538 5f57 f43d
00000080: e0b9 42bd fcf3 603e a05c 5abc 502c 2bbe
00000090: 309b 753e 10e2 e8bc 3065 a83d 18e5 563e
000000a0: 6c16 88be 4499 7ebe f80e ac3d 507c 923e
000000b0: 2fbb 14be a0e2 883e 42a3 94be be62 903e
000000c0: 4cbc 6c3c cac4 e3bd 700d 543e 7e3c 86be
000000d0: 7c64 953d 98e1 293e d44c 6c3e 01b1 d9bd
000000e0: 380f 05bd ddad 893e 7447 2f3e b02c 5d3d
000000f0: 7bf8 2abe ec8d 323e 6e17 ce3d 7426 063d
00000100: c981 b0bd ee1d 173e 4692 903e bc60 573e
00000110: ad35 0dbe 887f cebd 37d9 6fbe e0f3 fdbc
00000120: a08a 53be 8e2f 553d 8358 39bd 1f4e 3d3e
00000130: 9474 cb3d 96eb d63d 1034 d8bd 06ca 763c
00000140: 6a42 893e f8a6 8c3e 5023 993d 98a3 91be
00000150: 0c5f 473e 7e7c 283e 7914 a03c 1219 2fbe
00000160: 4eca 0d3e 82a7 87be 7e3a 69be 80e1 a1bc
00000170: 8e6f 0f3e 10f3 163e 50c3 e7bd 7bd0 9a3d
00000180: a8eb 80be f9bf 4cbd 4c19 833d 97ae 1fbe
00000190: 80cd 833b 93a8 8e3e fc74 90be d7fe c03d
000001a0: b849 283e f0e7 b13c ba39 5a3e 4882 7cbe
000001b0: dbc8 3fbe a073 553e 8149 90be 2cab 903e
000001c0: b03c 103e cc1b 1d3e a2b1 80be 4fd4 2ebe
000001d0: 4a1a abbd d03f 183d 7881 633e 5825 41bd
000001e0: b69f 95be 4d22 3bbe 58c7 68be 73e9 0d3e
000001f0: e833 7f3e 34e1 1e3e 0824 833e 6057 d4bc
00000200: bfc7 023d 7b32 bdbd d032 bd3d fe49 923e
00000210: cce6 893e 4ca4 723e 9899 20bd 5cf7 cabd
00000220: 0a3e 4fbe c090 b53c 1c1d 633e b63d 973e
00000230: b08a e9bc 4cc8 84bd 5057 f9bc 3952 11be
00000240: d47b 763e 1988 12bc 64de 7d3e 7cad 353d
00000250: 0cde 943e 16a2 323e 9f24 623e 5a00 183e
00000260: 1ad6 8abe 8075 753c d891 1c3e ecc8 e7bd
00000270: 037e 50be a8cc 573e 63b5 89be c0e0 413e
00000280: 1060 10bd 9ce7 63bd 2afb 663e 241a 733d
00000290: 4e7e e8bd 5caa 18be 9879 00be 1df0 1a3e
000002a0: 7a2c 973e 928e f83d a49f 06be b417 563e
000002b0: 7e0b 63bd 1010 e8bc 3cf1 ad3c ec9d 7e3e
000002c0: 328f c8bd b866 823e 8a85 93be 8094 b63c
000002d0: 4803 35bd 7c14 f73d 30ca 3ebd 2c41 d93d
000002e0: 0d0e 90be 418d 24be 0638 3abe bc9e d73d
000002f0: 9788 5ebe e474 9cbe 44c6 75be 5ed2 70be
00000300: 3eec 7cbe 4198 87be 99a1 32bd bc14 df3d
00000310: 3119 883e 487c 1fbe 5b91 303e ce6c 37be
00000320: 85ab 333e 201c 92be b837 183e 20c5 3c3e
00000330: 78a6 503e a753 16be 1a48 e73d 9ed1 bcbc
00000340: b7ff 37be 099d 673e e05c 4d3c 418a 67be
00000350: f321 89be c7f7 0bbe a8ea 513e 3cd0 403e
00000360: 3ae8 65be d9c1 7f3e 47a8 8e3e 4e4c 903e
00000370: b7db 9abd 0cdd c83d ee5f 0a3e 4e67 3d3e
00000380: bac1 92bd f83d 043e 7615 333e 34a5 283e
00000390: adf3 2b3e 6ecb 11be 6310 99be 34a7 6cbd
000003a0: ae1d 0e3e 6677 7c3e 7767 69be c488 4dbd
000003b0: 1eab 74be bcdf e3bd 9542 8ebe f05d 69be
000003c0: b15e 93bd e950 79be 048c 903e d0ac 353e
000003d0: 4378 ea3c c42b 4f3e 4207 e63c ae2d 6bbe
000003e0: 303c 553d fb24 ec3d 0c5a 8abe a850 3abe
000003f0: 0299 d5bd 46be 82be 8a6d 21be e3bc 7f3e
-0.24220692 -0.03160733 0.22818981 -0.13184771 0.2606576 -0.12139617 0.07727918 -0.03883339
-0.035196662 -0.26152948 0.14462003 -0.09798333 -0.21269163 0.008225173 0.2237333 -0.17764574
-0.18702143 0.2690882 -0.19322756 -0.16293405 -0.20651595 -0.0039533675 0.16845746 -0.11675593
-0.1092153 -0.17025764 -0.11366676 -0.24762642 0.2641341 -0.2949182 5.8527905e-05 0.11930727
-0.047540545 0.21968073 -0.013327748 -0.16716123 0.2398498 -0.028428108 0.08222425 0.2098583
-0.26579607 -0.24863154 0.084012926 0.28610468 -0.1452453 0.267354 -0.29030806 0.28200334
0.01444919 -0.11121519 0.20708251 -0.26218027 0.072945565 0.16589963 0.23076183 -0.10629464
-0.032485217 0.2689046 0.17117101 0.053997695 -0.1669635 0.17436951 0.100630626 0.032751516
-0.086185046 0.14757511 0.28236598 0.21032995 -0.13790007 -0.100829184 -0.23422705 -0.031000078
-0.2065835 0.052047305 -0.045250427 0.18486832 0.09934345 0.10494153 -0.10556805 0.015062815
0.26808482 0.27471137 0.074774384 -0.28445125 0.19469851 0.1645374 0.019541012 -0.17099407
0.13846704 -0.26494986 -0.22776219 -0.019760847 0.14007398 0.14741158 -0.1131655 0.07559296
-0.2517979 -0.049987767 0.06401309 -0.15593944 0.0040223002 0.27862987 -0.28214252 0.09423607
0.16434371 0.021717042 0.21311083 -0.24659073 -0.18728964 0.20844889 -0.2818108 0.28255594
0.1408565 0.15342635 -0.25135523 -0.17073177 -0.083546236 0.03717023 0.22217357 -0.047154754
-0.29223412 -0.18274803 -0.22732294 0.13858585 0.24922144 0.15515596 0.25613427 -0.02592057
0.031928774 -0.09238144 0.09238207 0.28572077 0.26933897 0.23695487 -0.03920898 -0.09910461
-0.2023851 0.022163749 0.22179073 0.2953927 -0.028508514 -0.06483516 -0.030437142 -0.14191522
0.24070674 -0.008943581 0.24791867 0.0443549 0.29075658 0.17444643 0.22084282 0.14843884
-0.27116472 0.014981627 0.1529001 -0.1131762 -0.2036057 0.21074164 -0.268962 0.18933392
-0.035247862 -0.0556408 0.22556749 0.0593511 -0.11352216 -0.14908737 -0.12546384 0.15130658
0.2952612 0.12136568 -0.13146836 0.2090748 -0.05543088 -0.028327972 0.021233194 0.2486493
-0.09792937 0.25468993 -0.2881282 0.022287607 -0.044192582 0.12064454 -0.04657954 0.10608134
-0.2813572 -0.16069509 -0.18185434 0.10528323 -0.21731792 -0.3055793 -0.24001414 -0.23517749
-0.24699494 -0.26483348 -0.043611143 0.10892627 0.2658172 -0.15574753 0.17242949 -0.179126
0.17545898 -0.28537083 0.14865005 0.18434572 0.20376003 -0.14680348 0.11293049 -0.023049172
-0.17968641 0.22618498 0.01253435 -0.22611333 -0.26783714 -0.13668738 0.2049967 0.18829435
-0.22451869 0.24976291 0.2786276 0.28183216 -0.075614385 0.09807786 0.13513157 0.18496439
-0.07165857 0.12914264 0.17488655 0.1646927 0.16792174 -0.14237759 -0.29895315 -0.057776645
0.1387851 0.24654922 -0.22793375 -0.050179258 -0.23893401 -0.11126658 -0.27785173 -0.2278974
-0.07195795 -0.24347271 0.28231823 0.17741704 0.028621798 0.20231539 0.028079633 -0.22966644
0.052059352 0.11530491 -0.27021825 -0.1819483 -0.104295745 -0.25535792 -0.15764442 0.24974398

linear1.bias f4 [256]
00000000: 1bc8 58be 588b 4f3d 23fb a03e dca0 d4bd
00000010: e53b 22be 4af6 0d3d 75d8 fb3d 8688 48be
00000020: 1c4b f8bd 1cbd a4bc 22bf ebbd d75b e2bc
00000030: 367b f3bd 4867 013e fdac 4f3e 5886 963e
00000040: dec9 5fbe b0e6 f93d 8679 bebd 6f1f 353e
00000050: 5d48 903c 04c3 69bd ceba 8d3e 7d5b 6abe
00000060: a05c 2dbe 47f9 7d3e d2be c9bd 336f 373e
00000070: ff96 b63d 9870 80bd c890 ce3d 79f6 6a3d
00000080: 610a 2d3b d826 75be d8f2 85bc f96b bf3d
00000090: c03b b33d 00b5 c23c 8ea0 49be f0f1 a13d
000000a0: 99b8 ae3c 5aab e6bd 5196 19bd 8b8e 9a3d
000000b0: 6273 d0bd 10b5 e2bd 00a4 fc39 8a72 b8bd
000000c0: aebf 3abe e719 13be cba1 85be 7038 84be
000000d0: 00a0 dcba aa20 90be 202b 6c3e 7da6 1bbe
000000e0: 9c37 923d 6b6b c5bd c49a de3d f84c 813e
000000f0: 3954 0ebe 80ed c53c c807 413d 9d37 2cbd
00000100: 9241 5cbd d856 1e3e 74da 3ebe fdc1 253d
00000110: e06a 53b7 593d e73d a05a b9bd eba1 683d
00000120: 122d 46be 4a46 d43d 68cc d2bd 0154 96be
00000130: 1c0a e9bd 136e b8bd a74a f93d 8cb9 5dbd
00000140: c296 983d 0e25 3ebe 367f 613d 483f 913e
00000150: 1d54 bcbd ec05 8abe b0fd e0bc 486b 98be
00000160: 8511 4abe 3d9b f5bc dc4f 7ebd 9c3c 94be
00000170: 5807 b23d 8c47 ee3a 18b5 00be fcff cf3d
00000180: 5691 9b3e 2490 8dbe c2c3 393e 923d 88be
00000190: 6079 f7bd 5cc7 79bd 45ee 26be bc29 6bbe
000001a0: ef6e cf3d 5543 2bbe 576b 49be 2644 93be
000001b0: 4dec dbbd b8d5 19bc 2f71 833e 0851 733e
000001c0: 0c48 4f3e 66c1 523e 3cd4 a03d 9e88 463e
000001d0: 1227 6dbd 43ef 353e 0c69 5c3d 5371 07be
000001e0: 6da4 de3d d9f2 7f3c 3215 3dbd 1496 2e3d
000001f0: 9fab af3c 9d1e 8e3e feed 723e 93e0 8c3e
00000200: 4851 983d 368a 223e 603f 96be ad69 6dbc
00000210: 1ef3 223d d25f ffbd f2b1 8d3c 5624 10be
00000220: 525b c9bd 64e7 593e 9547 953e fc6c 81be
00000230: 28fa 663e 6083 b9bd c87c 24be 2286 853e
00000240: 30da af3d dd0d 81be 5cf7 d9bc f55e 9a3e
00000250: 4421 e63d 5fc1 5dbe a13e 373e 4fc5 35be
00000260: f741 833e 7e0c 7b3d 1e5d 94be 6efe 783e
00000270: bf0a 5dbe aa93 56be 107f f4bd 4c6e 883c
00000280: c257 a43d 7d32 ae3d f5a4 783e 2a05 72be
00000290: ec62 8bbe d55f 1dbe a36b 7c3d 96da 05be
000002a0: d02f 7ebe 4d7d 6bbe 9e8b 8d3e 0018 bf3b
000002b0: 5a4b 953d f0ed 0c3e 971b 8bbe 2372 493e
000002c0: cd46 903e 810c d1bd 20c6 3cbd 957d e4bd
000002d0: 0fa4 83be 93d3 073e ba26 3fbe 216f 58be
000002e0: 3a82 54be 410e cdbd 9be5 8dbe 9fc5 5fbe
000002f0: 913a c6bd 28f4 42be 8df7 013e d0a8 a83d
00000300: a0b7 8dbc 11e1 603e 8167 173e 6af3 aabd
00000310: ef75 883e b816 41bd 4424 6f3e 1327 c9bd
00000320: 4e6c 843e 38d1 debd ea92 633e 899a e13b
00000330: 62ef 743e 3f4f 0e3d 6fe1 033e c9b3 953e
00000340: 0660 fabc a885 86be 933b 76bd 2d7f d63c
00000350: ac8f 52bd 1e80 d7bc 43e9 59be adcd 6f3c
00000360: 9ae6 15be 4c40 3dbe 2d94 1b3e 49d7 123e
00000370: 58c2 83be 7411 073e 7199 f6bc 4423 893e
00000380: f9b6 873d 42c2 523d b139 56be 061e 903e
00000390: 5b85 25be 2007 9dbc 3e67 c7bd 0f6f 363e
000003a0: 76c8 843e dcb7 c23d 7298 89bd f866 743d
000003b0: 97ee a7bd 87db 78bc 90d8 0bbd 609d f83d
000003c0: fb60 39be b8f5 2bbd 435c 2bbd c8f3 05be
000003d0: 9c61 eebc bda8 55bd 593e 0abe 4ada 823e
000003e0: 69b7 66be d33b 243e 3f06 96bd 680e a6bd
000003f0: c770 6a3e c784 5d3e 45e3 583e 7435 84be
-0.21170084 0.050669998 0.31441602 -0.10382244 -0.1584316 0.034658708 0.12297145 -0.1958333
-0.12123701 -0.020109706 -0.11511065 -0.027631683 -0.11888735 0.12637055 0.20280834 0.2939937
-0.2185435 0.12202203 -0.093005225 0.17687772 0.01761263 -0.057070747 0.27681583 -0.22886463
-0.16929865 0.24802123 -0.09850849 0.17913513 0.08915519 -0.062714756 0.100862086 0.05736396
0.0026403891 -0.23940599 -0.016351148 0.09346766 0.08751631 0.023767948 -0.19690153 0.07907474
0.021328257 -0.112631515 -0.03749687 0.07546719 -0.101782575 -0.11069691 0.00048187375 -0.090062216
-0.18237182 -0.1436535 -0.261 -0.25824308 -0.0016832352 -0.2814992 0.23063326 -0.15200229
0.07139513 -0.09639629 0.10869363 0.25254035 -0.13899316 0.0241611 0.04712656 -0.042045224
-0.05377347 0.15462816 -0.18638021 0.040468205 -1.2601464e-05 0.11290998 -0.090504885 0.056795042
-0.1935313 0.10364969 -0.10292894 -0.29360965 -0.11378881 -0.0900537 0.12172442 -0.05413203
0.0745063 -0.18568823 0.05505296 0.28368592 -0.09195731 -0.26957643 -0.027464718 -0.2976935
-0.19733246 -0.02998125 -0.06208788 -0.2895249 0.08692807 0.0018179282 -0.12569082 0.10156247
0.3038432 -0.27649033 0.18141082 -0.26609474 -0.12083697 -0.06098114 -0.1630183 -0.22965139
0.10128581 -0.16724904 -0.19669853 -0.2876293 -0.1073843 -0.009389333 0.2567229 0.2376138
0.20242327 0.20581588 0.078529805 0.19388053 -0.05789859 0.17767052 0.053811118 -0.13226824
0.108712055 0.015621864 -0.04616279 0.042623594 0.02144414 0.2775773 0.237236 0.27515087
0.07437378 0.15873036 -0.29345226 -0.014490527 0.039782636 -0.12469448 0.017296765 -0.14076361
-0.09831871 0.21279675 0.29156175 -0.2527846 0.22556365 -0.09058261 -0.16063225 0.26078898
0.08586538 -0.2520589 -0.026607208 0.3015057 0.11236814 -0.21655796 0.17894985 -0.17751049
0.25636265 0.06129121 -0.28977293 0.24315807 -0.2158613 -0.20954767 -0.11938298 0.016654156
0.08024551 0.085057236 0.24281676 -0.23634782 -0.2722391 -0.15368588 0.061626088 -0.13071665
-0.24822927 -0.22997017 0.27645582 0.0058317184 0.07289763 0.13762641 -0.27169487 0.19672446
0.28179017 -0.10207463 -0.046087384 -0.11156765 -0.25711104 0.13264303 -0.18667117 -0.21136142
-0.20752802 -0.10012484 -0.27714238 -0.2185273 -0.096791394 -0.1903845 0.1269209 0.082353234
-0.017299473 0.21960856 0.14785577 -0.08347209 0.26652476 -0.047140807 0.23353678 -0.09821906
0.2586388 -0.10879749 0.22224012 0.006884877 0.23919442 0.034743544 0.12878965 0.29238728
-0.030563366 -0.26273847 -0.06011541 0.026183689 -0.051406547 -0.026306208 -0.21280389 0.014636439
-0.14638749 -0.18481559 0.15193243 0.14339937 -0.2573421 0.13190252 -0.030102463 0.26784718
0.06626696 0.05145479 -0.20920445 0.28147906 -0.16164152 -0.019168437 -0.09736489 0.17815803
0.2593419 0.09507725 -0.0671853 0.05966851 -0.08199804 -0.015189058 -0.034142077 0.12139392
-0.18103401 -0.041982383 -0.041836035 -0.13081276 -0.029099278 -0.052162874 -0.13500346 0.25557166
-0.22530903 0.16038446 -0.0732541 -0.081082165 0.22894584 0.21632682 0.21180446 -0.25822031

linear2.weight f4 [3, 256]
00000000: 3f30 203b 7cc9 633d 2533 d6bc b017 87bb
00000010: b543 863d ad69 04ba ca62 a0bd 448e e5bc
00000020: ba6c 1fbd ab0f 1cbd 2468 b23c 8b46 81bd
00000030: e851 843c fae6 a63b 51b9 85bc afec 6ebd
00000040: c0e5 053d f219 8bbd 9235 5cbc 8423 8dbd
00000050: 1fd1 0dbd ad80 44bd f46b aabb bc5f 1e3d
00000060: bee7 14bd 72f4 c1bc bce5 e53c 05cf 4f3b
00000070: 32fc 9a3c 3305 eabc 7f08 51bd 7128 33bc
00000080: 95dd a93c 1876 8939 bda7 513c b2de 1c3d
00000090: 16ad 4e3d f8c8 393c 3a4d 10bd 8d20 67bd
000000a0: 818c 46bd 3671 1bbd 513e c1bb 32da 61bc
000000b0: 7488 2abc 9c18 d0bc 6424 3bbd 58f0 44bd
000000c0: 1fbb 793d f0a5 34bd dd73 f5bb ed57 053c
000000d0: 38b8 6abd 00e6 8bba 597f 35bd 8c75 ab3c
000000e0: afb0 f63b 7e77 393c 769b 553d b037 12bd
000000f0: 8ea4 1abd 70f1 d83b 5ad9 7e3d e02a 3c3d
00000100: ebfa 08bc a089 4bbc 0c31 263d ab33 633d
00000110: 3361 8fbd edf4 78bc 918f 3e3d d6ed b63a
00000120: 6895 5b3c bf68 2fbd 5ab0 4ebd e0cb 63bc
00000130: f8a2 89bc 028a 4fbb ea08 113d 8015 f4bc
00000140: aa07 15bd b490 4f3d 87df 66bd 4a61 1bbd
00000150: eaa1 c3bc 8014 033d 9a01 0fbd 72a6 3bbd
00000160: e87c 2bbc d13b 613c e783 bb3c 8dd1 9abd
00000170: d857 e7bc baf2 47bd 10ab 2c3c c009 f9ba
00000180: 779f ab3c 704c 6abc e1e4 5dbd 7847 c13c
00000190: a847 313c 1680 5d3d 80da 4dbb dad6 743d
000001a0: 4cd2 d6bc 0ea9 01bd a295 1cbd a776 493a
000001b0: fad3 51bd 50d4 fb3c 9f36 32bd 8dda 27bd
000001c0: a1b6 0e3d 3187 c83c 91d2 e83b 8b5d 73bd
000001d0: 8b73 33bd 327f 6e3c e941 ce3c cca7 623d
000001e0: 1594 093d 35ac 15bd 9656 733d 203e 50bd
000001f0: f885 893c 8fa8 1abd 54b4 8a3c 3b16 663d
00000200: 08ac ee3c 0efc 98bd 002b 7abd 7a64 9ebc
00000210: c830 2ebd a67a 463d 62d0 053d 0024 34bb
00000220: 9129 183d 2ea2 36bc 9ea4 2d3d 269d 113d
00000230: f801 51bc f0e0 c4bc 7009 1ebd edb2 70bd
00000240: 90dc 173d 6fb8 993c df3d aabc 21af 8cbd
00000250: 7018 7d3c 081e 87bc 0ab7 153a 68f6 c83b
00000260: 7f9d cfbc a12a 32bd 54a2 9e3c f1e4 0bbd
00000270: 0c75 a6bc 0210 33bc 28a0 c1bc fb09 453d
00000280: 4152 a13b f591 293d 1369 8bbc 768b 353d
00000290: a71c 8fbd b251 b3bc 060c 263c 8166 5e3d
000002a0: c02e 09bd 7c93 f1bc 8206 c2bb 40f9 21bb
000002b0: 7adf 29bd 10c6 07bd 7e40 7e3c 61b6 2e3d
000002c0: b077 dbbc 84a5 a33c 007d 7ebb 8a2f d7bc
000002d0: 58ea acbc 023e d3bb 7a59 87bc 782e 333d
000002e0: 088a 9fbc f45c 743c fe00 78bd b0b6 c5bc
000002f0: c0e4 2fbb 7212 723d 5d25 8fbc 49e6 2e3c
00000300: 7caa d83c 9d1d 2bbd a46f 9d3c c065 953a
00000310: c379 4b3d 445e 683d 30be 11bc 77a9 3cbd
00000320: 55ec 4fbc 7e8a 173d 936c 19bb 7ac7 efbc
00000330: 19d6 2dbc 3623 a0bc 040c d4bc 8f4e 1cbc
00000340: 2b6a 53bd 3004 35bd e4ff 07bd 38c0 fdbc
00000350: 6861 94bd d6be 85bc cae1 2dbd 8edf a53d
00000360: 50a5 82bc 64f3 a6bc 22d4 a2bc 876a ebbc
00000370: 20d4 aa3c b58d 493d a10c dcbc 14d9 1fbd
00000380: 690f 0a3c 87cd f03c 3022 aabc 6d5e 1cbd
00000390: b455 69bd 28d2 25bc 9561 d8bc e720 72bd
000003a0: 78d3 3abb a0df 32bb 2d38 15bd 8a66 5dbd
000003b0: a0ef 663c 6e41 103c 90f0 4bbc 4a4a 93bb
000003c0: 541c 92bc 4037 86bb e58e f3bc 8c79 4a3d
000003d0: 79e5 2cbd 0783 2c3c 5cc3 c63c 4327 2a3c
000003e0: c9f2 153c ce98 023d ae47 7cbc 16f5 3e3d
000003f0: 1b03 b33c 7ad2 69bd 66cd dbbc 604d 0bbc
0.002444282 0.055612072 -0.026147434 -0.004122697 0.06555883 -0.00050511473 -0.078313425 -0.02802194
-0.03892205 -0.03810088 0.021778174 -0.06312283 0.016152337 0.0050934525 -0.016323717 -0.058331188
0.03268981 -0.06792058 -0.0134405065 -0.0689154 -0.03462326 -0.047974277 -0.0052008573 0.03866552
-0.03635382 -0.02367613 0.028063647 0.0031709087 0.018919084 -0.028566932 -0.051033493 -0.010934935
0.020735541 0.00026218663 0.01279634 0.038298316 0.050458036 0.011339419 -0.0352299 -0.056427527
-0.04847384 -0.037949763 -0.0058973213 -0.013784932 -0.0104085095 -0.02540236 -0.045689 -0.048080772
0.06096947 -0.044103563 -0.0074906186 0.008138639 -0.05730459 -0.0010673404 -0.0443109 0.020930074
0.0075283865 0.011319993 0.052150212 -0.03569764 -0.037754588 0.0066205785 0.062219 0.045939326
-0.008360605 -0.012422949 0.04057412 0.055469196 -0.07000961 -0.015195114 0.046523634 0.0013956379
0.01340232 -0.042824503 -0.05046115 -0.013903588 -0.016801342 -0.0031667952 0.03540889 -0.029795408
-0.036384262 0.05067511 -0.056365516 -0.03793458 -0.023880918 0.032001972 -0.034913637 -0.04581303
-0.010466792 0.0137471715 0.022890044 -0.075595 -0.02824013 -0.048815466 0.010538831 -0.0019000098
0.020950062 -0.014300451 -0.054173354 0.02359365 0.010820307 0.05407723 -0.0031410754 0.05977521
-0.026223324 -0.031655364 -0.03822864 0.0007685222 -0.051227547 0.030740887 -0.043509122 -0.04097991
0.034842137 0.024478527 0.0071051796 -0.05941538 -0.043811362 0.014556693 0.025177913 0.055335805
0.033588488 -0.036541183 0.059408747 -0.050840497 0.016787514 -0.037758406 0.01693169 0.056173544
0.029134765 -0.074699506 -0.061076164 -0.01933502 -0.04252699 0.04845681 0.032669432 -0.0027487278
0.037149016 -0.011147065 0.04239332 0.03555026 -0.012756817 -0.02403304 -0.03858322 -0.058764387
0.03707558 0.018764703 -0.020781456 -0.06869341 0.015447721 -0.016493812 0.0005711174 0.0061328895
-0.025343655 -0.043497685 0.019364513 -0.034153882 -0.020319484 -0.0109291095 -0.023635939 0.04810522
0.0049231355 0.04139896 -0.017017877 0.044322453 -0.06987887 -0.021889541 0.010134703 0.054296974
-0.03349185 -0.029489271 -0.005921186 -0.0024715215 -0.04147289 -0.03314787 0.015518306 0.0426544
-0.02679047 0.019976385 -0.003883183 -0.026267786 -0.021107838 -0.006446601 -0.016522158 0.043745488
-0.019474998 0.01491474 -0.06054782 -0.024134964 -0.0026839226 0.059099622 -0.01747387 0.010675021
0.02644848 -0.04177629 0.019218273 0.0011398122 0.049676668 0.056730524 -0.008895442 -0.04606005
-0.012690623 0.03699731 -0.0023410663 -0.029269923 -0.010610127 -0.01954804 -0.025884636 -0.009540214
-0.05161492 -0.044193447 -0.03320302 -0.030975446 -0.07245141 -0.01632635 -0.042451657 0.0809928
-0.015947968 -0.02037973 -0.019876543 -0.02873732 0.020853102 0.049207408 -0.02686149 -0.03902538
0.008426526 0.029394878 -0.020768255 -0.03817599 -0.0569665 -0.010120906 -0.026413718 -0.05911341
-0.0028507393 -0.0027293935 -0.036430527 -0.054052867 0.014095217 0.008804662 -0.012447491 -0.00449494
-0.017835774 -0.004095942 -0.029731223 0.049432322 -0.04221103 0.010529286 0.024263076 0.010385337
0.009152123 0.031884007 -0.015397949 0.04662045 0.021852067 -0.05708549 -0.02683134 -0.008502334

linear2.bias f4 [3]
00000000: 61b3 54ba 957f 2b3d f6c3 51bd
-0.0008113888 0.04186972 -0.051212274
