model/model.pth (torch, 17111 bytes, 4 tensors)

linear1.weight f4 [256, 11]
000000 00 e4 57 3e d3 b8 22 3e bb 8e da 3d df f8 a8 bd
       0.21083069 0.15890817 0.10671755 -0.082505934
000010 c0 e2 ce bd c3 87 2e be f9 13 8a be 55 68 44 3b
       -0.10101843 -0.17043976 -0.26968363 0.0029969413
000020 bf 0b 51 be e0 01 95 be 84 2b 34 3e 92 b3 94 3e
       -0.20414637 -0.29102993 0.17594725 0.2904325
000030 56 de a4 bb 21 6f bb bd 2c fa 43 be 90 99 0e 3d
       -0.0050313873 -0.091520555 -0.19138402 0.034814417
000040 2e 98 32 3e f0 7d 30 be a2 92 5b 3d 50 a6 ba bb
       0.17440864 -0.17235541 0.053606637 -0.0056960955
000050 ac 1e ac 3d c6 01 a0 be 7e 2e 8d 3c 0c 3f e4 bd
       0.08404288 -0.31251353 0.017234083 -0.11144838
000060 d6 e3 9c 3c 99 fe 49 be 23 ff fa 3c e3 5a 23 be
       0.01915161 -0.19726028 0.030639237 -0.1595264
000070 fa 4f 18 be e5 b4 99 3e 6b f4 df 3c da a0 f5 3c
       -0.14874259 0.30020824 0.027338227 0.029983927
000080 1e 5d 50 3e 45 29 2c 3e aa 21 f0 bd cb d9 07 3e
       0.20348021 0.16812618 -0.11725171 0.13266675
000090 5d 06 70 be d1 0b 89 3d 8b 56 d9 bd 51 d8 7e bd
       -0.23439927 0.06691707 -0.1061221 -0.062218014
0000a0 ce 7f 6d be f4 29 67 3e fc 1c 19 3d ac bb 2d 3e
       -0.23193285 0.22574598 0.037381157 0.16966122
0000b0 45 5f 5b be 03 33 85 3e 86 9f 98 3e b1 69 25 3e
       -0.21423061 0.2601548 0.29809207 0.161536
0000c0 82 8e 3a 3e d1 19 93 3e 50 51 ad 3d 26 cb c8 3d
       0.18218425 0.28730634 0.08462775 0.098043725
0000d0 ca 6f 7b 3e 1c 3e e5 3e 47 0b 0e be 3b 51 57 be
       0.24554363 0.44773948 -0.1387149 -0.2102708
0000e0 c2 73 8d be 12 0b b0 bb 8b 20 45 3e dc 2b 05 3e
       -0.2762738 -0.0053724134 0.19250695 0.13005012
0000f0 ff 1f 80 bd 04 3a 44 3e ba 2f 13 3e 75 5a b4 3b
       -0.06256103 0.19162756 0.14373675 0.0055039474
000100 af 59 cf 3d 38 52 5b 3d 54 6a 59 3d 4a c7 67 be
       0.10124528 0.053545207 0.053079918 -0.22634616
000110 ac 71 41 be db 2a 28 be cb a6 31 3e cd 20 b8 3d
       -0.18891019 -0.16422598 0.17348783 0.08990631
000120 2b 01 86 37 65 36 e7 3c 32 cf 2d be 8d 71 9e bd
       1.5974589e-05 0.02822418 -0.1697357 -0.07736502
000130 a9 70 2d 3e 4f c2 b8 3d 67 b4 50 3e 7c db 02 be
       0.16937508 0.090214364 0.20381318 -0.12779039
000140 fb 9a 87 3d ff d6 62 3e c1 16 39 be 8d de 73 be
       0.06621357 0.22152327 -0.18075086 -0.23815365
000150 95 48 62 3e ac 16 80 3e e2 51 dd 3c f6 62 25 be
       0.22098 0.25017297 0.027016584 -0.16151032
000160 d1 fc aa be 5f ce 4d be cb 53 08 be c5 39 8c 3e
       -0.3339601 -0.20098256 -0.13313214 0.27387825
000170 77 4c 22 3e a8 2c 92 be d6 a2 54 be 38 0f 43 3e
       0.15849482 -0.28549695 -0.20765242 0.19048774
000180 0b a2 b1 bd 51 2d 0c 3e 08 27 a7 bd 4d 75 ab 3d
       -0.08673485 0.13689162 -0.081617415 0.08371983
000190 48 9f af bd 54 3a de bd 03 a7 5c be 68 c6 19 be
       -0.08575302 -0.10850969 -0.21548085 -0.15017092
0001a0 7b 6f 4a 3e f2 f9 34 3e 74 d5 75 be e8 0d ef 3c
       0.19769089 0.17673472 -0.24007207 0.029181436
0001b0 5d 67 a9 3b ca a4 ed bd c3 cb 81 3e 82 d7 f7 bd
       0.0051697926 -0.11603697 0.2535077 -0.12101652
0001c0 b0 61 64 bd 05 8b 25 3e 25 98 0e bd 00 87 26 bc
       -0.055757225 0.16166313 -0.034813065 -0.010164022
0001d0 a7 45 96 be f8 39 29 bd 3b 7d 27 be 0c 1a 8f bd
       -0.29350016 -0.04131505 -0.16356365 -0.0698739
0001e0 3d f5 43 3b b6 48 da 3d 9a 40 dc 3d 6d 9a 97 3e
       0.0029900812 0.106584 0.10754509 0.29610005
0001f0 dc cd 62 be e0 02 a1 3e 35 01 0c be 8e 43 4c be
       -0.22148842 0.31447506 -0.13672335 -0.19947645
000200 b7 d0 4b 3e d0 78 9b 3e df 49 12 3f 78 44 9d 3e
       0.19903837 0.3036561 0.5714397 0.307163
000210 cc 8d 84 3c 9f dd 33 3e 8e 7e 83 be 05 ef ea bd
       0.016180895 0.1756501 -0.2568249 -0.114713706
000220 cb 7c 16 be f2 77 e2 3d db 6a 80 be ca 5a ad 3d
       -0.14696042 0.11058034 -0.25081524 0.08464582
000230 cd 9f 7e be ba 9d 1b be f0 da 47 be 5c 53 1a 3e
       -0.24865647 -0.15196887 -0.19517112 0.15070862
000240 d9 6b 25 3e b9 af 2c 3e cd 12 f7 bd 93 49 92 be
       0.16154422 0.16863908 -0.12064133 -0.28571758
000250 d3 68 0e 3c 09 5a 09 bd 39 44 83 be 45 8d a4 bc
       0.008691984 -0.03353313 -0.25637987 -0.020086894
000260 0c a2 57 3d 65 7f 06 3e a4 63 e8 bd e5 1b 8d be
       0.052644774 0.13134535 -0.1134713 -0.27560344
000270 a9 98 d0 3b 0a 18 4d 3d 05 0b 88 be 9e 23 83 be
       0.0063658548 0.050071754 -0.26570907 -0.2561311
000280 4f 5e 0e 3e 05 6b e6 3d 2f 6e f9 3b bd 43 ea 3d
       0.13903163 0.11250881 0.007612012 0.11438701
000290 b0 c2 7f be a8 e3 03 3d 3d e5 7a be d0 14 c4 3d
       -0.24976611 0.03219953 -0.2450151 0.09574282
0002a0 63 6c 85 bd 70 da b0 bd 6e 65 16 3c 01 c7 a8 3a
       -0.06514814 -0.08635414 0.009179456 0.0012876691
0002b0 b2 80 50 be c2 ff 4d be 72 9c 03 be 21 c1 5e bd
       -0.20361593 -0.20117095 -0.12852648 -0.0543834
0002c0 a9 79 92 be 5b f4 7d 3e 14 d3 e0 bd aa 4a 79 be
       -0.28608444 0.24800245 -0.1097776 -0.24344888
0002d0 83 d5 9f 3d 55 37 4d be 90 ff 45 bd 84 5c 2b be
       0.07804396 -0.20040639 -0.048339427 -0.1673451
0002e0 55 39 8a be 84 bd 51 3e 28 dc 91 3e 3c 86 20 3b
       -0.26996866 0.2048245 0.28488278 0.0024494072
0002f0 39 d2 4f be fa aa 1c 3e df f0 fd bd 6f ff 8f 3e
       -0.20295037 0.15299597 -0.12399458 0.28124568
000300 ca 26 f6 3c 15 46 15 be 31 77 af 3e 0e b8 1e 3d
       0.030047793 -0.14577515 0.34270623 0.038749747
000310 3b 04 79 3e 05 64 82 be c0 a2 3c be 40 81 98 3e
       0.2431802 -0.25466934 -0.18421459 0.2978611
000320 66 f1 f6 3d 13 62 ae 3d 81 64 5e be 06 74 7d be
       0.12057762 0.085148 -0.21718027 -0.2475129
000330 9e 02 2c 3e f7 9b b4 3d b8 84 a1 be a1 a6 7e be
       0.16797873 0.088188104 -0.3154657 -0.24868251
000340 85 a7 c7 bd 19 1b 2f 3e 7a 66 9c 3e 85 78 37 3e
       -0.09748749 0.1710018 0.30546933 0.17917068
000350 46 7d 59 3e 8b be 2d 3e 24 2d e8 3c 5c ed 65 be
       0.21239194 0.16967218 0.028341837 -0.22453827
000360 2e 01 5f 3e f9 20 4f be bd 23 42 3e 4c a4 d0 3c
       0.21777794 -0.20227422 0.18958946 0.025468968
000370 a9 cc 5a be 2b f4 2f be 69 31 72 be d7 22 fb bc
       -0.21367134 -0.17182986 -0.23651661 -0.030656261
000380 b5 7c fc 3d 68 bd e3 3d a4 34 a2 3d 7f cc 9d be
       0.123284735 0.11120111 0.07920197 -0.3082008
000390 fe 56 d7 3d 44 d4 71 3e 34 a7 8b bd d1 68 b1 bd
       0.10514639 0.23616129 -0.06819001 -0.0866257
0003a0 26 19 5e bd 03 7d 56 be 6b 43 ba bd 82 64 1f be
       -0.054223202 -0.20946126 -0.0909489 -0.15565684
0003b0 96 4a 34 3e f4 70 c4 bd b4 83 0a 3e 41 76 5f 3e
       0.17606577 -0.095918566 0.13526803 0.21822454
0003c0 d0 88 8f 3e 60 23 b2 be a7 0c 2a be a7 df 14 bd
       0.28034067 -0.34792614 -0.16606389 -0.036346104
0003d0 25 b8 8c 3e 98 84 ab be bb a2 2e 3e 5a 27 16 3e
       0.2748424 -0.33499599 0.17054264 0.14663449
0003e0 6f 36 58 be b2 1c 79 3d c0 6f 49 be b1 5a 61 3e
       -0.21114515 0.06081838 -0.19671535 0.22007252
0003f0 7d e7 0a be d1 ca 2e be 04 79 91 be ac fb 5a be
       -0.13564868 -0.17069556 -0.2841264 -0.21385068

linear1.bias f4 [256]
000000 12 f4 63 be 97 83 5e 3e 1d d6 aa 3c b3 a2 f0 3d
       -0.22261074 0.21729885 0.02085405 0.117497824
000010 c8 30 45 3e 0c a5 79 be e2 e7 3a be 9b 5f 06 bc
       0.1925689 -0.24379367 -0.18252519 -0.008201505
000020 fe 7e 69 3e 48 01 88 be 23 34 86 be 4c f3 2b 3f
       0.2280235 -0.26563478 -0.26211652 0.67168117
000030 70 55 8a 3e f2 60 cf bd ef bb 04 be 96 ff f0 3b
       0.2701831 -0.10125913 -0.12962316 0.007354687
000040 c0 06 73 3d e9 07 89 3e 0c bb 4e 3e 81 95 95 3e
       0.05933261 0.26763847 0.2018854 0.29215625
000050 34 89 da 3c f5 b0 8e 3e e9 7c c3 bd 4b a8 87 bb
       0.026676752 0.27869383 -0.09545309 -0.004139935
000060 87 7a 49 3e 01 fb cb 3d 83 19 e9 bd ae ed 91 3d
       0.19675647 0.099599846 -0.11381819 0.07125412
000070 aa f6 da bc 8e 6b 62 3e c1 dd 89 be de 8e 2b 3e
       -0.026728947 0.22111341 -0.26926997 0.16753718
000080 d6 7b 40 be 63 44 11 be f4 c6 25 be 7c 02 24 bd
       -0.1879724 -0.14186244 -0.16189176 -0.04004143
000090 34 ef da 3d cd cd 7e bd b4 41 0b 3d 5d 4b b2 be
       0.106901556 -0.062207986 0.033998206 -0.34823123
0000a0 68 79 54 3e 4d 75 ac 3d 47 3a a7 3e ac 18 b8 be
       0.20749438 0.08420811 0.3266165 -0.35956323
0000b0 23 a3 10 be ce cf 87 3e ad 05 1a 3d 18 0f c5 be
       -0.14124732 0.2652573 0.03760307 -0.38488078
0000c0 d4 c2 dc 3d d5 35 b5 3d eb bd 30 3e 42 41 9f 3e
       0.10779348 0.08848158 0.17259948 0.31104475
0000d0 82 9b 95 be e8 46 a6 be 18 66 b8 3e c8 71 0d 3d
       -0.29220206 -0.32475972 0.3601539 0.03453234
0000e0 47 d4 9e bd 53 3e 9a be e4 b0 09 bb 92 d9 91 3e
       -0.077553324 -0.30125675 -0.0021009976 0.28486305
0000f0 cf 53 2d 3d 89 67 b5 3d f5 82 57 be 50 ce 96 3d
       0.042316254 0.088576384 -0.2104605 0.0736357
000100 9f ce e4 bd 4d d1 3b be e9 69 92 bd d2 b6 9c 3e
       -0.11172222 -0.1834156 -0.07149107 0.3060823
000110 7c 98 1f 3f aa 50 3c 3e 2b df 00 3e bf d4 87 bd
       0.6234205 0.18390146 0.12585132 -0.06632375
000120 14 4e 93 be 1a b1 ea 3e 70 a5 b6 be 68 7c e7 3e
       -0.28770506 0.45838243 -0.35673094 0.45212102
000130 a6 e2 3e 3e 1c 1e 48 be 55 be 6e be d4 b0 e2 3e
       0.18641147 -0.19542736 -0.23314793 0.44275534
000140 49 df 58 be 84 37 56 be 58 4a a6 3e 39 71 18 be
       -0.21178927 -0.20919615 0.32478595 -0.14886941
000150 81 2f 81 3e 9a 8f 28 be c2 ce 3d bd b7 cc 96 3e
       0.25231555 -0.1646103 -0.046339758 0.2945306
000160 02 1f 86 bd 62 66 14 be 96 75 36 be 1a c4 ba bd
       -0.06548883 -0.14492181 -0.17818293 -0.09119435
000170 35 4d c2 3e 88 7c 87 be fe 35 fa 3e f0 46 99 3e
       0.3794953 -0.26462197 0.48869318 0.29936934
000180 cb c8 83 bc 45 7e cd 3d 3d d9 f4 bd ec 78 ec 3c
       -0.016086956 0.100338496 -0.119554974 0.028866254
000190 4e 77 5a 3c d0 ff 31 be e6 5f 70 3d 06 b3 15 3e
       0.0133341085 -0.17382741 0.058685206 0.14619073
0001a0 50 bc d3 3e a2 e2 77 bd ec b1 90 3e 1b b4 6f 3e
       0.4135461 -0.06051887 0.28260744 0.23408549
0001b0 b9 03 d9 bd 7a 2f 25 3e 0e bf aa bc 5c 58 aa 3d
       -0.10596413 0.16131392 -0.020843055 0.083176345
0001c0 7c 86 a1 3e 17 16 d5 bc df e5 92 3e ce 49 db bc
       0.31547916 -0.02601151 0.28691003 -0.026768591
0001d0 85 0a 64 3e ca d4 45 bd e1 88 0a bd 27 af 51 be
       0.22269638 -0.048298635 -0.033821944 -0.20476972
0001e0 a8 d3 82 be 5f b6 84 3b 2b 17 4b be 21 a8 56 be
       -0.25552106 0.0040500606 -0.19833057 -0.20962574
0001f0 80 ca 29 3e aa 7c 68 bd c6 8f 43 3e 32 b4 13 3e
       0.16581154 -0.056759514 0.19097814 0.14424208
000200 8f 7e 6a be b5 ad 14 3e e7 be 6a be b8 0c 9c be
       -0.22899841 0.14519389 -0.22924386 -0.30478454
000210 86 9e 5f 3d f1 7c 8c be 48 1f c8 bb 97 2f cb bd
       0.05459454 -0.27439073 -0.0061072446 -0.099211864
000220 be ac 72 bd ca 8d a6 3d 0f 94 1d be 2d 74 4b bd
       -0.05924677 0.08132513 -0.15388511 -0.04967134
000230 ab aa 74 bd d7 9a fb 3d 2a e5 10 bd df cb ab be
       -0.059733074 0.12285393 -0.035374798 -0.3355398
000240 66 35 9d 3e f6 ec 2b be d1 cf d6 3d 76 30 66 3e
       0.30704802 -0.16789612 0.104888566 0.22479424
000250 30 aa ad 3c 73 52 56 3e 44 ef d8 bb 1b e0 95 3e
       0.021199316 0.2092989 -0.0066203196 0.2927254
000260 a0 64 99 bc 4d 08 b2 be d9 7e 5b be a6 c7 2c be
       -0.01872474 -0.34771958 -0.21435107 -0.16873035
000270 e0 3c 44 be 15 da b0 be d7 9e 41 3e b0 85 aa be
       -0.19163847 -0.34541383 0.18908249 -0.3330512
000280 bd 79 84 3e 69 06 19 be 3b 95 c0 bd 2c a7 98 be
       0.2587413 -0.14943852 -0.094034635 -0.29815042
000290 e2 6f 0e be 38 5e 59 3d 5b ef fb bd 98 d9 be bd
       -0.13909867 0.05306837 -0.12301513 -0.093188465
0002a0 e9 98 78 bd 67 24 fb 3d 57 8a a8 be 47 b4 5f 3e
       -0.0606927 0.122628026 -0.32918045 0.21846114
0002b0 b2 3e f7 bd 6d 54 66 3b 74 ed 93 bd 3f e1 92 be
       -0.12072505 0.0035145537 -0.07223025 -0.28687474
0002c0 7d 76 2c be 3d af 58 3e d9 6a 01 be a0 17 c8 3e
       -0.16842075 0.21160598 -0.12638415 0.39080524
0002d0 6a c9 89 bc a3 51 56 be db 73 b7 3d dc 52 33 3e
       -0.016819675 -0.2092958 0.089576446 0.17512077
0002e0 c1 9a bb bd c8 f1 18 be 7e e2 b8 3e dc d0 3b be
       -0.09160376 -0.14935982 0.361103 -0.18341392
0002f0 8c 93 a9 bc 90 1a 6a be 14 6e 46 3e eb 05 13 3e
       -0.020700239 -0.22861695 0.19377929 0.14357726
000300 a1 4c 1b 3e 23 b5 13 3e 34 2c a4 3e 1e fc 15 3e
       0.1516595 0.14424567 0.32064974 0.14646956
000310 d8 6c 6c 3d 91 23 77 be 68 d0 90 be f5 06 15 be
       0.05772099 -0.24134661 -0.28284 -0.14553435
000320 5b eb 3e 3c 8f aa f7 3e c5 1f 32 3d bf 17 87 bd
       0.011652793 0.48372313 0.04348733 -0.06596326
000330 fe a2 0d be 9e 69 91 3d a0 f1 23 3e 12 57 b4 bd
       -0.13831708 0.07100223 0.16010141 -0.0880567
000340 2f 83 4f 3e 02 37 d0 3d f0 60 f0 3e 74 58 8a bc
       0.20264886 0.10166742 0.46948957 -0.01688788
000350 2a ac 9a 3e be 79 3b 3c 13 da 6b be 8b 18 21 be
       0.30209476 0.0114426 -0.23032407 -0.15732019
000360 9f df 9e 3e 9c 0f 86 3e 98 ff 27 bd 28 ae 83 3e
       0.31029984 0.26183784 -0.041015238 0.25718808
000370 ae d3 b5 ba 04 b8 13 3e b3 aa 86 be 1d e7 0d 3e
       -0.001387229 0.14425665 -0.26302108 0.13857694
000380 63 19 47 be 2a 97 86 3d 31 0c c9 3d 38 61 42 be
       -0.19443278 0.06571801 0.098167785 -0.18982399
000390 71 53 16 3d fc 5b 23 be 5d fd 56 be d4 93 9b ba
       0.03670067 -0.15953058 -0.20995088 -0.0011869618
0003a0 40 43 44 be d7 3f 04 3e fd 2c 39 3e 08 b6 ab be
       -0.19166279 0.12914978 0.18083568 -0.33537316
0003b0 ce ef 2b 3b 41 fc 10 3f e2 28 99 3e fe 0b 5a 3e
       0.0026235464 0.5663491 0.29914004 0.21293637
0003c0 55 73 60 be 17 d4 9b bc 2a 98 c2 3e 36 de 0e bc
       -0.21918996 -0.01902203 0.38006717 -0.008719971
0003d0 5e c5 8c be fd e6 ae bd 6f e5 99 3e 1f f1 95 be
       -0.2749433 -0.08540151 0.30057856 -0.29285523
0003e0 fb 3b 8c be 38 c4 ac 3e b4 7e 3f 3e 01 67 21 3e
       -0.2738951 0.33743453 0.18700677 0.15761949
0003f0 ed e0 94 be ac 65 ed 3d bd a8 ed bd bf 21 8a be
       -0.29077855 0.11591658 -0.1160445 -0.2697887

linear2.weight f4 [3, 256]
000000 14 95 50 bd 7e 7b 62 3c 90 19 8a 3d c5 c2 22 3c
       -0.050923422 0.013823388 0.06743157 0.009934132
000010 c1 25 21 3e 3d 38 1f 3d 6a 57 90 bd 09 29 9f b8
       0.15737058 0.038871992 -0.07047923 -7.589354e-05
000020 2d e7 92 3d e3 80 15 bd 84 db cc 3c 86 0c f6 3d
       0.071729995 -0.03649987 0.025007017 0.120141074
000030 97 c1 de 3c b3 c3 17 3d c7 ea 7e 3d d3 b9 2f 3c
       0.02719192 0.037051868 0.06223562 0.010725456
000040 44 d1 e0 3d f7 a1 58 3d d3 21 19 3d a6 eb 0f 3d
       0.10977414 0.052888837 0.037385773 0.03513684
000050 bf 0f 7e 3d d3 57 dc 3c d6 3f 8f 3d ca dd 9e 3d
       0.062026735 0.026897347 0.069945976 0.07757147
000060 9c 7f 9b 3d ee eb 21 3d 87 0e 79 3c 26 cf 8e 3d
       0.07592699 0.03953164 0.0152012175 0.06973104
000070 78 c4 99 bd 52 1b 19 3e 06 9a 28 bd 2e 7d 5b 3d
       -0.075081766 0.14951828 -0.041162513 0.053586178
000080 e3 b8 8e 3b 80 3d 69 be 0c 63 39 3d 77 3b 4b 3d
       0.0043555363 -0.22777367 0.045260474 0.049617257
000090 ae e0 a1 3d bd 6f 3f 3d 00 7f 52 3c 1e cf 51 3d
       0.079041824 0.04673742 0.012847662 0.051222913
0000a0 a4 0d 16 bc 24 35 14 3d 97 ce a8 3d 3e 8c 87 3c
       -0.009158526 0.03618349 0.08242529 0.016546365
0000b0 07 3e 28 3d bf 28 eb 3d ec af 99 3d 00 1a 01 3d
       0.04107478 0.11482381 0.075042576 0.031518936
0000c0 95 b1 9d 3d 01 63 8f 3d f9 c9 3a 3d a7 75 70 bd
       0.07699887 0.07001305 0.045602772 -0.058705952
0000d0 07 2e 20 3d e9 4d 42 3d 9a 34 ab 3d 51 ad 9f 3c
       0.039106395 0.047437582 0.08359642 0.019491823
0000e0 c5 11 39 3c 54 bf 85 bc 4f ca 83 3c 9d d2 ae 3d
       0.0112957405 -0.016326584 0.01608768 0.08536265
0000f0 70 cb c7 3d f3 9e 54 3b 68 4b 0f bc 96 3b c2 3a
       0.097555995 0.0032443374 -0.008746006 0.0014818783
000100 70 3d 8c bd 69 1f f0 bc 1d 9d e3 3c a2 8d fe 3d
       -0.06847656 -0.029311853 0.027784878 0.12429358
000110 6e 6a e3 3d f6 fd 7f 3d 70 48 57 3d 8b d4 8d bc
       0.11104284 0.062498055 0.052559316 -0.017313262
000120 53 b0 36 3c c5 06 ad 3d b0 5b 85 bd fd 76 50 3d
       0.011150437 0.08448557 -0.06511629 0.050894726
000130 cb 4d 30 3d 15 91 a9 3b 5b 9e 80 3c 01 0f b3 3d
       0.04304294 0.005174766 0.01570051 0.08743096
000140 10 d9 f6 ba ce fd 96 3d 6d 73 0c 3e 19 44 b6 3c
       -0.0018833 0.07372628 0.13715906 0.022249268
000150 13 38 25 3d f5 09 64 3c 6d 46 26 bc d0 e4 3e 3d
       0.04033668 0.01391839 -0.010148627 0.04660493
000160 02 16 0c 3b 40 ed 22 3d 47 65 5b bd 71 4f c9 3c
       0.0021375422 0.03977704 -0.053563382 0.024574013
000170 09 c8 63 3d c6 53 d3 3d a5 b1 ea 3d 0b 85 19 3d
       0.05561069 0.10318713 0.11459664 0.037480395
000180 99 03 1c 3c 6d f1 36 3d 35 b4 0b be dd 0f ef 3d
       0.009522342 0.044663835 -0.13642962 0.116729476
000190 3a 66 9c 3d 4d ff b4 bd c9 10 b4 3d 83 e1 09 3d
       0.07636686 -0.08837757 0.08792264 0.03366233
0001a0 1b 91 a5 3d a7 03 32 bd 3e da 3f 3d 25 7e 72 be
       0.08084317 -0.043460514 0.04683899 -0.23680933
0001b0 fd ee 11 bb 40 b0 9c 3d b5 20 57 bc 04 57 9e 3a
       -0.0022267692 0.076508045 -0.013130357 0.0012080376
0001c0 7c 97 ea 3c 0e ee 90 3d a8 83 f9 3c 9f 6f 08 3d
       0.028636687 0.07076655 0.030458286 0.033309575
0001d0 19 af 8e 3d 10 52 7b bd 9e 08 cc 3d a1 d3 b2 bd
       0.06966991 -0.061357558 0.09962581 -0.08731771
0001e0 00 c6 19 bd 2d db 03 3d 34 f8 a4 3c 6d e9 97 3d
       -0.037542343 0.032191444 0.020137884 0.07417569
0001f0 e9 b4 c9 3d 93 69 d0 3d 83 ef b4 3d 01 35 74 3d
       0.09848959 0.10176387 0.08834746 0.05962086
000200 be 1f 5a 3d 69 b1 05 3c 52 c3 af 3d 09 ba a1 3c
       0.053252928 0.008159974 0.08582176 0.019742029
000210 94 69 b0 3a 1c c0 cb 3d 75 fa 02 bd cd 60 71 3d
       0.0013459199 0.09948751 -0.031977136 0.058930207
000220 2b 47 5a 3d 0f c3 ee bc f9 46 23 3c 6c 9b 11 3d
       0.053290527 -0.029145746 0.009965652 0.035548612
000230 f1 4d 53 3d 9d 01 b4 bd 03 6c a9 3d 9c f9 6c 3c
       0.051588003 -0.0878937 0.08272555 0.014463808
000240 39 90 11 bd b6 3f 1b 3c 06 c9 4d 3d 3f 87 b6 3d
       -0.035537932 0.009475639 0.05024054 0.08912515
000250 2c 39 14 3d 5e 1c e9 3c 7d cb 57 3d 5b e9 29 3d
       0.036187336 0.02845591 0.052684296 0.04148231
000260 ca c2 79 bd a3 c3 06 3d 9e fc 2e 3d 96 8e cc bd
       -0.06097678 0.032901417 0.042721383 -0.099881336
000270 a0 43 8e 3c bd 45 56 ba 7b 11 8b bb b3 0d aa bc
       0.01736623 -0.0008173844 -0.004244027 -0.020758485
000280 b3 69 25 3d 1e a6 25 3d 1b f1 98 bc 3d b5 04 bd
       0.040384006 0.040441625 -0.018669656 -0.032399405
000290 cd d4 ad 3b 02 ed 85 3d 0b b0 39 be f6 87 4c 3d
       0.005304909 0.06539346 -0.18133561 0.04993435
0002a0 d4 f8 11 3d 1b d0 8e 3d 1c c4 8f 3c f8 20 f8 3b
       0.03563769 0.06973287 0.017549567 0.0075722896
0002b0 9e 3b 10 bc 8b 82 a2 bd 20 f5 41 3d 0f 77 6e bc
       -0.008803276 -0.07935055 0.04735291 -0.014554753
0002c0 98 15 0b 3c 3d 64 90 3d 53 86 25 be 88 ec c2 3d
       0.008489035 0.07050369 -0.16164522 0.09517771
0002d0 c2 4b 0f 3e e2 11 14 3d 78 0f fc 3d 9b d9 4b 3c
       0.13993743 0.036149867 0.12307638 0.012442018
0002e0 67 50 f8 3c 06 32 36 3d a2 35 bf 3d 0d 02 9f bb
       0.030311776 0.0444813 0.093364015 -0.0048525394
0002f0 54 88 71 3d 20 a4 de 3c 85 37 b6 3c d3 94 91 3d
       0.058967903 0.02717787 0.02224327 0.07108464
000300 bb e0 fa bc ff 1a 7e 3d cc aa cf 3c a8 5b b2 3d
       -0.030624738 0.062037464 0.025349997 0.08708888
000310 c7 2d 00 3e 59 79 02 3d cf 97 15 bc 0b 72 0f 3d
       0.12517463 0.031854007 -0.009130432 0.03502087
000320 01 4d c9 3c 86 e6 b8 3d 66 13 01 3d 09 af 47 3c
       0.024572851 0.09028344 0.03151264 0.012187728
000330 98 53 fb bc 3a fd 6f 3c 9a 15 8a 3d b3 57 78 3d
       -0.030679509 0.014647776 0.067424014 0.06063051
000340 12 c0 3c 3d 16 ed 61 bc d6 53 95 3d 1e ae 9d 3c
       0.04608161 -0.013789436 0.07291381 0.019248065
000350 d0 2a 82 3d 77 d3 91 bc 4b 70 ae 3d 0e 85 73 bd
       0.06355822 -0.01780103 0.08517512 -0.059453063
000360 9b 32 cb 3d 55 ea 1b bb 27 f2 ae 3c 5c 05 a9 3c
       0.099217616 -0.0023790796 0.021355702 0.020632438
000370 5a 41 9b bd 3f 2e 79 3d 9f e3 eb bb aa bf 2f 3d
       -0.07580824 0.06083512 -0.0071987654 0.042907394
000380 86 c4 b5 3c d1 4c 89 3c 1c dc 7c 3d 68 4d c9 3d
       0.022188436 0.016760262 0.06173335 0.09829217
000390 b6 99 f1 3d 52 35 89 3c be 9d 47 3d a2 26 be 3d
       0.11796896 0.016749058 0.04873442 0.092847124
0003a0 71 f0 b5 3c 1b c9 07 be 68 73 29 3e 0d 93 46 3d
       0.022209378 -0.1326031 0.1654793 0.048480082
0003b0 8a ae 1b bc 86 f7 05 3e 33 42 18 3d 76 1a c8 3d
       -0.009502063 0.13082704 0.037172507 0.09770672
0003c0 66 4e 25 3b b5 c5 29 3d dc 27 e0 3d de 7b b6 3d
       0.002522373 0.041448314 0.109451026 0.089103445
0003d0 59 3c 41 3d 20 35 47 3d af 42 03 3d b1 57 17 3d
       0.047176693 0.04863465 0.032046016 0.036948863
0003e0 6f c9 98 3d 23 28 95 3d 03 05 c5 3d 95 8c eb 3d
       0.074602954 0.07283046 0.096200965 0.11501423
0003f0 d4 a6 c0 b9 3e 5e 18 3e ba eb 90 bd f8 0e 77 3c
       -0.0003674539 0.148797 -0.07076211 0.015079252

linear2.bias f4 [3]
000000 5c 9c c3 3d b5 f9 a8 3d 09 fc b7 3d
       0.095513076 0.08250753 0.08983619
