model/model.pth (torch, 17111 bytes, 4 tensors)

linear1.weight f4 [256, 11]
00000000: 69bc 603e 5da8 25be d690 8ebe c00a 883b
00000010: 95ac 12be 4dfc 7f3e 533f 253e 686a a8bd
00000020: 1f3d ca3d 38c7 97be 8862 24bd 8840 0b3e
00000030: 541a 063d 24c7 81be 95b2 2c3e da6a a43e
00000040: a1e5 633e 89cd 5ebe 009f 713d 45bf 4a3e
00000050: dae0 2cbe f8cc d73d 006e 88be edc4 34be
00000060: f455 b23d 5aee d7bd 1c28 2b3e 6abb 893e
00000070: a061 633e d586 19be 3e91 3f3d e2e0 38be
00000080: 1e5b c1bd 07e6 a13d 4d96 98bc 5750 c9bc
00000090: 1880 d03d 75fe 4cbd 253d 003e a8b4 a93d
000000a0: 9d48 abbe b702 433d 5bea 593e c437 5abe
000000b0: 8a24 d23d 6c99 723e 15c6 d2bc 2e1c 04be
000000c0: 9231 54be e0c7 653e d781 383e ebe7 3f3d
000000d0: 6b17 23be 76c3 823e 736a 82be 389d 353e
000000e0: e417 55be 2073 8d3c bce2 48be 382d 3e3d
000000f0: 886d f0bd e0ef 843c 34e0 f2bd d032 b23d
00000100: b0b7 95be 7c11 603e c438 8dbe 2503 ad3e
00000110: 3382 cebc d8ad 10be 4c52 603e afea 2dbe
00000120: 9743 39be 2aa7 bfbd f721 343e 4baa 213d
00000130: 7393 98be 4985 763e 10d9 62be a34d d03d
00000140: 13ec 49bd 61dd acbd 90e7 9b3c 2ec2 74be
00000150: e4b4 993d a139 ee3d b4df d3bd f44b 753e
00000160: 7362 b83e 2f04 ebbd ef19 cabd 2c29 eb3d
00000170: c174 a13e e839 87be ee7c d5bd 858b f43d
00000180: cea1 3d3e 8429 ea3d 0647 3abe f75e 93be
00000190: 643a 8a3d 7cf4 253e d012 6e3d 4088 6a3c
000001a0: 1eaa 423e 8066 a23d e139 97be ec0d 4ebe
000001b0: 16a5 8ebe b029 833e e3ac 7cbe 2829 54bc
000001c0: 91ab ea3d edf3 e83d 569c 5a3d b635 7fbe
000001d0: 6832 8ebe 3c20 c73d 06b5 b13c 3043 8abe
000001e0: 4111 94be 163f 0dbe 8fef ba3e 2228 833d
000001f0: 1aa5 8cbe ff46 61bd fd23 38be a2a8 483e
00000200: 8a6c e4bd 7b78 043d 3184 1a3e 3c05 4bbe
00000210: a894 36be 7ea0 863e e902 5cbe 0af1 a73e
00000220: aec5 803e 6193 853e 9ef9 5d3e 7606 8e3e
00000230: 4891 61be 64cd a0be e145 1bbe 6c8d cd3e
00000240: e056 503d 4a90 8abe 30f6 fabd e71b a63e
00000250: 1726 323e 9439 5a3e b7dc 08be d77c 60be
00000260: c799 123c 2457 33be c96c c83c d058 62bc
00000270: fe8b 5ebd e602 123e 7df3 493e a08c 06bc
00000280: 5d19 92bb f313 bf3d dc94 e8bd e0a5 453e
00000290: 28b2 773e f6de 5cbe e045 c1bc 2c0f aebd
000002a0: e487 83be 34d5 16be 10fe f53c a251 63be
000002b0: 10f4 65bd 60bf acbc bc07 babd 765e 053e
000002c0: efa2 573d 0c9f b3bd 37b8 bdbd 7be8 f03d
000002d0: 9239 353e 53c6 c23d c516 813e 2b93 a2bd
000002e0: 4faf 2bbe f940 98be 90d5 1ebd 29f8 843e
000002f0: 9517 00be 95d9 3a3c aec1 a93d 8974 d53d
00000300: 7e58 5d3e 8a9f 823d ac3d 4bbd 38be 043e
00000310: 1135 88be c860 4a3e 1fb2 b33d f3a1 6b3d
00000320: e31b 413e d228 2a3d 8468 ee3d b6f3 8a3e
00000330: b2a8 6a3e c4b8 7cbe 4b2d 07be 6f27 9cbd
00000340: caf9 aebd 14d3 38bd 9a5c 84bd 487b a2bd
00000350: 31a2 5b3e de30 8d3d 9a7e 71be b894 30be
00000360: 5763 793e d496 a83d dd0f 96bd 4a4c 013e
00000370: 3b7c ad3e 1c5a 08be 1951 92be 382d 88be
00000380: c822 0e3e e0b4 413d 929f a03d fb05 7b3e
00000390: f7cb 003e 7912 74bd 5ce2 053e 7289 51bd
000003a0: 82fa 03bc 0163 4d3e ae8c 583e 9aa5 9bbd
000003b0: a1b6 603e b643 01bb 73af babd 02c8 e3bd
000003c0: b744 2a3e d01b 113e aeb8 09bd 68e0 013d
000003d0: ecbb 92bd ee23 60be 7f09 f83c 640d 92be
000003e0: a69a 37bd 02d5 53be 10a1 223e ff28 c3bd
000003f0: a66f 143e 135d 41be af41 52be e219 61bd
0.21946873 -0.16177507 -0.27844876 0.004151672 -0.14323647 0.24998589 0.16137438 -0.082234204
0.09874939 -0.2964418 -0.04013303 0.13598835 0.032739952 -0.25347245 0.16864999 0.3211277
0.22255565 -0.21758093 0.058989525 0.19799526 -0.16882649 0.105371416 -0.26646423 -0.17653246
0.087078005 -0.10543509 0.1671452 0.26900798 0.2220521 -0.1499284 0.046769373 -0.18054536
-0.09441207 0.07905202 -0.018626356 -0.024574442 0.10180682 -0.050047357 0.12523325 0.082864106
-0.33453837 0.04761001 0.21280806 -0.21310335 0.102608755 0.23691338 -0.025729218 -0.12901375
-0.20722035 0.22439528 0.1801828 0.046852034 -0.15926902 0.2553975 -0.2547184 0.17735755
-0.20809895 0.01726681 -0.19617742 0.046429843 -0.117396414 0.016227663 -0.118591696 0.08701098
-0.29241705 0.2188167 -0.2758237 0.33791462 -0.025208568 -0.14128816 0.21906394 -0.16984056
-0.1809219 -0.09358056 0.17591082 0.039469045 -0.29799995 0.24074282 -0.22153115 0.10171058
-0.049297404 -0.08440662 0.019031316 -0.23902199 0.07505205 0.116320856 -0.10345402 0.23954755
0.3601261 -0.11475407 -0.09868228 0.11482462 0.3153439 -0.26411366 -0.10424219 0.11940674
0.18518755 0.114337 -0.18191156 -0.2878339 0.067494184 0.16206545 0.05812341 0.014314711
0.19010207 0.079297066 -0.29536346 -0.20122498 -0.27860326 0.25617743 -0.24675326 -0.012949266
0.11458505 0.1137465 0.05337175 -0.24922833 -0.27772832 0.09722945 0.021692764 -0.27004385
-0.28919414 -0.13793597 0.36510894 0.06404139 -0.27469712 -0.054999348 -0.17982478 0.19595578
-0.11153515 0.03234146 0.1508949 -0.19826216 -0.17830145 0.2629432 -0.21485485 0.32801086
0.25150818 0.26089004 0.21677253 0.27739304 -0.22028077 -0.314067 -0.15163375 0.4014696
0.0508641 -0.2706321 -0.12253988 0.32443163 0.17397343 0.21311027 -0.13365446 -0.21922623
0.008947796 -0.1751371 0.024465935 -0.01381512 -0.054332726 0.14258918 0.1972179 -0.008212239
-0.00445859 0.09329977 -0.11356518 0.19301558 0.24189055 -0.21569428 -0.02359289 -0.084989876
-0.25689614 -0.14729768 0.030028373 -0.22199109 -0.05614096 -0.021087348 -0.090835065 0.13024315
0.05264562 -0.0877057 -0.09263652 0.11763092 0.17697743 0.095104836 0.25212684 -0.07938226
-0.16766094 -0.2973707 -0.038777888 0.2597058 -0.12508996 0.011404415 0.082888946 0.10422618
0.21615788 0.06378086 -0.04961936 0.12963188 -0.26602986 0.19763482 0.08774208 0.057527494
0.18858294 0.041542836 0.116410285 0.27139062 0.22915915 -0.24679857 -0.13200872 -0.07624709
-0.08543737 -0.045123175 -0.06462975 -0.0793367 0.2144859 0.06894086 -0.23583451 -0.17244232
0.24354301 0.08231893 -0.073272444 0.12626758 0.33883843 -0.13315624 -0.28577498 -0.26597
0.13880455 0.047291636 0.078429356 0.24514 0.12577806 -0.05958793 0.1307463 -0.05115647
-0.008055331 0.20057298 0.21147415 -0.07599945 0.21944667 -0.0019724197 -0.091154955 -0.11122133
0.16627775 0.14170766 -0.03362339 0.03170815 -0.071647495 -0.21888706 0.030277966 -0.2852584
-0.04482522 -0.20686725 0.15881753 -0.09529304 0.14495715 -0.18883161 -0.20532869 -0.054956324

linear1.bias f4 [256]
00000000: 9163 81be 7455 de3d 1b38 b03c c4ce dabd
00000010: 2919 163e c151 76be cc5c 40be f468 90bd
00000020: 1ad8 20be 8189 f3bd 056a 85bd 7443 493e
00000030: c6ce 68be 7b8f 723e 6664 7fbd 0a14 80bd
00000040: 8ef5 b43d d7f6 d3bd 9cb5 063e 1b5e 86be
00000050: abf7 333d 8212 b8be 3193 873e 116b 6e3e
00000060: 1341 793e 3e21 483d 7a93 2ebc f3f6 c1bb
00000070: 4fbd 753e a0f1 fe3a 6485 edbd 5c67 04be
00000080: 9e48 2eb9 6d01 13be d395 9cbe c1d5 f53d
00000090: 74e4 48be 7e56 603e 52c4 dbbd dd73 4dbe
000000a0: cef7 86be d9c4 6c3d 2eb5 023e b424 8e3e
000000b0: 320b 70be 82e7 a6bc 65b9 c4bc c076 11be
000000c0: ab2a d83d 4d07 7cbe dc47 05be f6e7 82be
000000d0: 6b6f 823d 5983 4ebe 65b5 6abe 45d8 81bc
000000e0: bbb6 58be 21c1 fc3d d20b 933d 96b1 a23e
000000f0: 11af c93c d454 be39 9b7f 6abe b59f 4ebe
00000100: a6de 0ebe c299 423d 5cff 0ebe d90f 833e
00000110: 29c5 253e 2918 8a3e 92e9 e93c a81a a1bd
00000120: 140e 9abe 4451 76be d0bd 633d c4cf 96be
00000130: 2199 0fbe cfdf 4abe c8d8 d2bb e7c8 75be
00000140: e074 693d 6eb3 0f3d ad74 9fbe ff21 c4bd
00000150: cd33 833c cda1 06be bd2a de3d 6ec5 53bd
00000160: 9c1d 59be a5b8 c63d fa20 2a3e c841 f23d
00000170: aa71 3a3e 9916 32be 5fb5 aebe c0b6 423e
00000180: 8aba a9bd ed54 1dbd 3e97 223e abe9 15be
00000190: 42eb 9b3e 20a3 37be 7861 6b3e 6f81 01be
000001a0: e3bc a03d e863 cd3d 530d 003d 6a59 073e
000001b0: 7e8a 28bc 8f81 8cbe de1f 3cbe 0a50 163e
000001c0: d003 82be dc6c b1bd 0bbe 82be c53f 1fbd
000001d0: 7f1c 2abe 56f6 17be 11e9 8bbd 5460 49bd
000001e0: c1ef 9e3c b130 92bd 3b82 3c3e 228b aabe
000001f0: 5019 68be ced9 a73d b926 4a3e 095f 4abd
00000200: 6243 823d d83f 75bd b9f0 8a3d 0453 2ebe
00000210: c939 85be 68d9 4bbe c2f0 833e c1c6 6f3e
00000220: ce6e 343e aa66 54be 9004 663e 69f7 883d
00000230: d457 43be 9c68 97be db06 9f3e 9b25 e23c
00000240: fc29 adbd e25a 643d b865 a03d 3997 6c3e
00000250: a3af 363d 88a0 97be 3638 0b3d a017 10be
00000260: b826 1b3e 0a35 6e3e dd13 d8bd 53b6 2dbe
00000270: 0465 a73d c704 3c3d 4e76 27be 4c7d 7ebe
00000280: b627 803e 2b4a e3bd 1a56 56be 902f ecbd
00000290: a51a 773d 4f05 61be 3d0c 173e 0d64 633e
000002a0: 7203 52be b486 5ebe bdf2 51be cc7f 573e
000002b0: 9405 fdbd 5d02 adbd 02a5 c6bd a315 8ebe
000002c0: fc76 bdbd 7d8d 2b3e 6bd6 debd 7bf4 92bd
000002d0: b241 20bc ddb5 363e 4b57 2dbe ca84 efbd
000002e0: a633 133e 66d0 bf3d a6a4 24be 18f9 6ebe
000002f0: 2617 7abe 1d39 7dbe fcc8 1bbe 1f6e ae3c
00000300: 05a0 cdbd 83bc 793d 5cf7 5dbc 58b2 53bd
00000310: 328e 4e3e 5ca9 53be 9952 fe3c 1ccf a4be
00000320: 6ebd 3d3e bcdd d43d 4637 00be 84b4 143e
00000330: 993f ffbd 5383 0d3c af3e 8a3d b382 443e
00000340: 5abc 203e 6ff9 acbd e9c9 8b3d 154e e6bd
00000350: 357b 813e 5f1e 8f3c 6a7c 36be 1176 d13d
00000360: 838e 34be 8989 3f3c 0087 313e 00ab 0c3e
00000370: 6a16 dfbd 372b 82bc 65e0 133e 31c8 843c
00000380: 0f72 a6bd b14a 54be fb2c 8bbe 1b4d 58be
00000390: b888 7b3d 9c5d 65be f204 0dbe 6a50 813d
000003a0: 1af0 ecbd 5d36 5dbe c325 e1bd 0fb9 30bd
000003b0: 8fb6 a3bd ba46 0f3d 68d0 82be 5c20 1c3d
000003c0: eb93 edbd 2637 883d 5842 87be 0cd1 8dbd
000003d0: 6837 0c3e b335 d9bd ec3f 403e 9a51 f4bd
000003e0: 66e2 313e f336 89be 7073 f83d 08e5 57be
000003f0: 14d4 653e ef83 42be a12f be3d e6ea 79bb
-0.25271276 0.10856143 0.021511128 -0.10683969 0.14658035 -0.24054624 -0.18785399 -0.07051268
-0.15707436 -0.11891461 -0.06514362 0.19654638 -0.22735128 0.23687546 -0.062351607 -0.06253822
0.08835898 -0.10349815 0.13155216 -0.26243672 0.043937366 -0.3595162 0.26479486 0.2328303
0.2434123 0.048859827 -0.010655278 -0.005919331 0.23997997 0.0019450672 -0.11597708 -0.12930053
-0.00016620985 -0.14356013 -0.30583057 0.12003661 -0.19618398 0.21907994 -0.107308045 -0.2006373
-0.26360935 0.057804916 0.12764427 0.27762377 -0.2344177 -0.020374063 -0.024014184 -0.14205456
0.10555013 -0.2461216 -0.13015693 -0.25567597 0.063689075 -0.20167293 -0.22920759 -0.015850196
-0.21163456 0.12341524 0.07179989 0.31776112 0.024619611 0.00036302826 -0.2290024 -0.20178111
-0.13952121 0.047509916 -0.139646 0.25598028 0.16188492 0.26971558 0.028553758 -0.078664124
-0.30088866 -0.24054438 0.05560094 -0.29455388 -0.14023258 -0.19811939 -0.0064345337 -0.2400242
0.056996226 0.035083227 -0.31143704 -0.09576797 0.016015911 -0.1314766 0.108479954 -0.051701955
-0.21202701 0.09703187 0.16614142 0.11828953 0.18207422 -0.17391433 -0.3412275 0.19015026
-0.08287533 -0.03841107 0.15878007 -0.14639919 0.30452925 -0.17933321 0.229864 -0.12647031
0.07848527 0.10028821 0.031262707 0.13217703 -0.010286925 -0.27442595 -0.18371531 0.1467897
-0.25393534 -0.086633414 -0.25535616 -0.038879175 -0.16612433 -0.14840063 -0.06831563 -0.04916413
0.019401433 -0.071381934 0.18409054 -0.33309275 -0.22665906 0.0819584 0.19741334 -0.04940704
0.063605085 -0.05987534 0.067841955 -0.17023855 -0.2602065 -0.19907153 0.2576962 0.23415662
0.17620394 -0.20742288 0.22462678 0.06687815 -0.19076473 -0.29571998 0.31059918 0.027605822
-0.084552735 0.055750735 0.07831901 0.23104562 0.044601094 -0.29614663 0.033989154 -0.14071512
0.15151489 0.2326242 -0.105506636 -0.16964082 0.08173564 0.045902994 -0.16353723 -0.24852484
0.25030297 -0.11098131 -0.20931283 -0.11532509 0.060328145 -0.21974681 0.14750762 0.22206135
-0.20509127 -0.21731073 -0.20502754 0.21044844 -0.123545796 -0.084477164 -0.096994415 -0.27750883
-0.0925121 0.16753192 -0.10880741 -0.07175537 -0.009781288 0.17842813 -0.16927831 -0.116952494
0.14375171 0.09365921 -0.16078433 -0.23337209 -0.24422893 -0.24728818 -0.15213388 0.021292744
-0.10040287 0.060970794 -0.013547745 -0.051683754 0.2017143 -0.20670074 0.031045245 -0.32189262
0.18529293 0.10393855 -0.12521085 0.14521986 -0.12463302 0.008637267 0.06750237 0.19190483
0.1569685 -0.08446013 0.06825621 -0.11245362 0.25289312 0.017470537 -0.17820898 0.102275975
-0.17632489 0.011690506 0.17336655 0.13737106 -0.10892947 -0.015889747 0.14441068 0.01620874
-0.08127224 -0.20731618 -0.27182755 -0.21123163 0.061409682 -0.2239899 -0.13771418 0.06314166
-0.11569233 -0.21602769 -0.109935306 -0.043145236 -0.07993805 0.03497956 -0.25549626 0.038116798
-0.11600479 0.06651144 -0.26417804 -0.06924638 0.13693011 -0.106059454 0.18774384 -0.11929627
0.1737152 -0.26799735 0.12131393 -0.21083462 0.22444183 -0.18995641 0.09286428 -0.0038134395

linear2.weight f4 [3, 256]
00000000: c595 0a3c 64e7 57bd 50c8 603d f789 90bd
00000010: 6bab 0b3b 8e5e 623d df88 16bc e3cc 09bd
00000020: 3616 72bd 7c6e 7dbd 4188 233b da53 96bc
00000030: 301f a239 b776 8cbd db12 e03c 80ac 413c
00000040: 02b8 c5bc 2b3c e7bc ca8d 8ebb fbc9 93bb
00000050: ee24 76bd 02fa 123d 0544 77bc 33ea 66ba
00000060: 89d3 773d 7185 b23c 2f58 8abc 2988 60bd
00000070: b912 573b 9c22 383c 1386 163d a87d 84bd
00000080: 0b52 8f3c 2083 6fbd 2ed4 85bd 169d ecba
00000090: f210 953c fa9f a7bc 24df f9bc feec 2cbd
000000a0: ddbb 4fbc 1631 1cbd 63b5 eabc b84f 003d
000000b0: b42c 9bbb 7bae 47bc 079a c5bc 555f f13c
000000c0: 98e7 11b9 6af1 423c cc9d a4bd 3b04 49bc
000000d0: 5268 313d 8a0d 293d 81d9 4dbd cb82 dfbc
000000e0: 3805 2a3d f0a1 4dbd 4440 8cbc 9dd8 9fbd
000000f0: b7db 27bc fee6 49bd cac8 453d 69eb 203c
00000100: f4d8 af3c 1604 b1bd 8988 febc 311f 523c
00000110: cf5d 03bd b0dc 6a3c 5eef 54bd 6edf e63c
00000120: 0c7b 8bbd 96fc 76bd 112d 783d 5061 64bd
00000130: 33d3 5abd c939 2a3d c85a 1ebd 6698 0f3c
00000140: 7bf6 e9bc 8972 7cbd fe6f 0cbd 238e 9e3d
00000150: 6d9c 013c ae0a 42bd f932 003e 3bd0 c5bc
00000160: 9685 1abe c2a3 0e3c 2ab7 fc3b 006a 93ba
00000170: d3e2 3abc 484a 67bc 3ffe 223d e0ec b3bd
00000180: 9ea5 2e3d 4716 df3b 603a 74bd 293d 7abd
00000190: 0a26 643c dac9 bebd 67bf f3bc fdf2 403d
000001a0: 3a87 33bc bb61 aa3c 03f9 0e3d bf8e 36bb
000001b0: ff5b 62bc 2a4b 403d c45e 8c3d 979d 553d
000001c0: d91a 3bbd c18e 9bbc 1e25 d83c 6664 b6bb
000001d0: deaf 12bc 7514 063c 7349 37bc bc10 793d
000001e0: f4ca a83c 6e2a 44bc a557 313d b525 a6bc
000001f0: 1a90 8abd d162 47bb dccd 793c 93cb 1fbd
00000200: aacb 7c3d eaa1 84bd 576c 4f3c 96fc 373d
00000210: 0a72 97ba be83 983d dd76 eb3b 687e 42bd
00000220: 6ea0 dbba 3080 0ebc c6d5 30bd 1552 c1ba
00000230: 2011 fbbb 412e 213d dfde 74bd 1d32 c63d
00000240: bd08 d3bc 96a8 adbd a3ba 89bc 7f5e 2a3b
00000250: c7d3 c3bc 62bc 123d 4009 923c 598e c73c
00000260: 0b51 cdbc b2b8 bcbd f054 2c3c 3c36 75bc
00000270: eea3 55bd ca1d fe3c 3618 373d 67cb 5c3d
00000280: da97 9fbd d576 a9bd 685c 2fbc a6ab ba3b
00000290: 9115 06bb 8ae6 92bd 4e1d 1abc 4136 90bd
000002a0: 16e1 59bd 648e bd3c cce8 84bd f91e 33bc
000002b0: 5471 9cbc 5417 93bc 3a1b 09bd cace e4bd
000002c0: 04e0 79bd b1e9 6fbd ecd0 7f3d 6a96 a1bc
000002d0: 741b e7bb 2fdf 5cbc 41af 8dbd 18eb 5c3d
000002e0: 32ed 40bc 3e87 c93d 5207 6fbc 6464 de3c
000002f0: 91a2 ee3c 10e3 16bc 11b1 a33d 489b c53c
00000300: d8d5 64ba f1fb 83bb 8ce1 cdbc 7147 4b3d
00000310: 2d3b 73bd de74 f9bc c393 90bd 9084 98bd
00000320: 9338 0abd 1eab 3b3d cadd b7bc a15f d23a
00000330: cddf bbbc f75c 53bd ff9a 6ebd 0ba6 1a3d
00000340: 5cc7 6f3c d347 cabd 60d5 953d 5c09 2abd
00000350: 2c3e 5e3d 9742 543d c56b db3c 8c04 84bd
00000360: be6d 943d 237b 00bd bf9f 57bc 01ca f0bb
00000370: c042 5d3b 0091 b1bc 0e27 cabd a7a5 a8bd
00000380: 8596 0dbd 3d85 8abb f968 91bd 9087 533d
00000390: 2c46 93b9 6a32 8f3c 16b2 5d3d f1cf 59bd
000003a0: 15af c1bd 13c0 4dbd ef17 3f3d 96b2 aebc
000003b0: 6dbf 6dbc b3ae 113d 7f72 4ebd ea03 21bd
000003c0: 3c88 a0bd 7339 c1bc 5268 76bd 67b1 cabc
000003d0: 0a84 91bd ac94 38bd 18a0 8bbc e809 6cbd
000003e0: 8e97 f6bb b7b8 4d3d 182d 5cbd b690 0a3c
000003f0: a001 2c3d f9fd 91bd c97d c4bd 0acf c6bd
0.008458559 -0.052710906 0.054878533 -0.07057565 0.002131189 0.055265956 -0.009187906 -0.03364266
-0.059103213 -0.061872944 0.002495304 -0.01835053 0.00030922284 -0.068585806 0.027352741 0.011820912
-0.024135593 -0.028226933 -0.0043503987 -0.004510162 -0.060093813 0.035882957 -0.015091901 -0.0008808702
0.06050447 0.021792145 -0.016887752 -0.054817352 0.0032817556 0.01123872 0.036748957 -0.064692795
0.017495176 -0.05847466 -0.06534611 -0.0018052186 0.018196557 -0.020462025 -0.03050191 -0.0422182
-0.012679067 -0.03813275 -0.028650945 0.031326026 -0.0047355536 -0.0121875955 -0.024121298 0.029464403
-0.00013914553 0.011898378 -0.0803791 -0.012269075 0.04331238 0.041272677 -0.050256256 -0.027284047
0.041508883 -0.050203264 -0.017120488 -0.078049876 -0.010245255 -0.049292557 0.04828719 0.009821751
0.021465756 -0.086433575 -0.031070964 0.012824819 -0.032071885 0.014334843 -0.05198609 0.028182711
-0.06810579 -0.06029948 0.060589854 -0.055756867 -0.05342407 0.041559014 -0.038660794 0.008764362
-0.028559914 -0.061632667 -0.03428649 0.07741954 0.00791083 -0.047373466 0.12519445 -0.024147144
-0.15090021 0.008706035 0.0077122645 -0.00112468 -0.011406618 -0.014116831 0.03979325 -0.08785415
0.042638414 0.0068080756 -0.059625983 -0.061093483 0.013925085 -0.09315844 -0.029754354 0.04710673
-0.0109575335 0.020798555 0.034905445 -0.002785608 -0.013815879 0.046946682 0.068540126 0.052152243
-0.0456799 -0.018988969 0.026384886 -0.0055661676 -0.008953063 0.008183588 -0.011186945 0.060806975
0.020604588 -0.011973007 0.043296475 -0.020281652 -0.067657664 -0.003042389 0.015246835 -0.039012503
0.061717667 -0.06476195 0.012660108 0.04491862 -0.0011554372 0.07447003 0.0071858005 -0.04748383
-0.0016756186 -0.0086975545 -0.04317262 -0.0014749194 -0.0076619536 0.03935075 -0.05978286 0.09677527
-0.025761003 -0.08479421 -0.016812628 0.0025996265 -0.023904694 0.035824187 0.017826676 0.024359869
-0.025063058 -0.09214915 0.010518298 -0.014966544 -0.05215829 0.031020064 0.044700824 0.053904917
-0.07792635 -0.082746185 -0.010703184 0.0056967316 -0.0020459632 -0.07172878 -0.009406401 -0.07041598
-0.053193174 0.023139186 -0.06489715 -0.010932677 -0.019097008 -0.01795546 -0.03347323 -0.111722544
-0.061004654 -0.058572475 0.062455103 -0.019725043 -0.007052833 -0.0134809455 -0.06918193 0.05393514
-0.011775302 0.098402485 -0.014589148 0.02714748 0.029130252 -0.009209409 0.07992757 0.024121895
-0.0008729375 -0.0040278365 -0.025131963 0.04962868 -0.059382606 -0.030451234 -0.07059433 -0.07447159
-0.03374536 0.045817487 -0.022444624 0.0016050228 -0.022933865 -0.05160233 -0.058253285 0.037756007
0.014634933 -0.09876981 0.07316089 -0.041512832 0.05425851 0.051821318 0.026784787 -0.0644618
0.07247494 -0.031367432 -0.013160645 -0.0073482995 0.003376171 -0.021675587 -0.0987073 -0.08234721
-0.034567375 -0.004227309 -0.071001 0.051642954 -0.00028090307 0.017480094 0.054124914 -0.053176824
-0.09457222 -0.050232004 0.046653684 -0.02132539 -0.0145109715 0.035566997 -0.05040216 -0.039310373
-0.07838485 -0.023586964 -0.06015808 -0.024742795 -0.071052626 -0.04506366 -0.017044112 -0.057626635
-0.007525391 0.050224986 -0.053753942 0.008457353 0.041993737 -0.071285196 -0.09594304 -0.09707458

linear2.bias f4 [3]
00000000: bc88 6fbd 9069 2e3c e0ed 423c
-0.05848001 0.010645285 0.011897534
