model/model.pth (torch, 17111 bytes, 4 tensors)

linear1.weight f4 [256, 11]
0	0xbddfb938	-0.109239995
1	0xbe8360fe	-0.25659937
2	0xbe5def6c	-0.21673363
3	0xbd1734ea	-0.036915697
4	0xbe1299a8	-0.14316428
5	0xbe26f26c	-0.16303414
6	0x3e314996	0.17313227
7	0x3da9c3c4	0.082892925
8	0xbe5c2e4b	-0.21502034
9	0xbda114c3	-0.07865288
10	0xbc3ee72e	-0.011651797
11	0x3f227209	0.63455254
12	0x3ebde890	0.37091494
13	0xbe2a6888	-0.16641438
14	0xbd0f73b7	-0.035022464
15	0x3c056b45	0.008143251
16	0xbb7ac189	-0.0038262329
17	0xbdcfa5a8	-0.10139018
18	0x3ec95840	0.39325142
19	0x3e7e1a5d	0.24814744
20	0x3e58776a	0.21139303
21	0x3e85f71d	0.26165095
22	0xbd328b8d	-0.043590117
23	0xbe9ded0e	-0.3084492
24	0x3f00a8a6	0.5025734
25	0xbe6179b5	-0.22019084
26	0x3d749548	0.05971268
27	0xbb95bb22	-0.004569427
28	0x3e030c06	0.12797555
29	0x3ced62d9	0.028977798
30	0xbe1501b3	-0.1455143
31	0x3db85741	0.09001017
32	0x3dfbc5cc	0.12293586
33	0x3ea9a83f	0.33136174
34	0xbe94f549	-0.29093388
35	0xbd1caa7a	-0.038248517
36	0xbe084df2	-0.13310984
37	0x3d14fa2b	0.03637139
38	0x38b43e63	8.594689e-05
39	0xbe986068	-0.29761052
40	0xbe31d471	-0.17366196
41	0x3ce55190	0.027992994
42	0xbdc327d1	-0.09529079
43	0xbdd0d633	-0.10197105
44	0xbe210826	-0.15725765
45	0x3ec9215f	0.39283273
46	0x3e606188	0.21912205
47	0x3d398a2f	0.045297798
48	0xbdfe8496	-0.124276325
49	0xbea25f84	-0.31713498
50	0xbeb39395	-0.35073534
51	0xbe580a03	-0.21097569
52	0xbe2c7dbc	-0.16844839
53	0xbdeb0247	-0.11475044
54	0xbcac592d	-0.021038616
55	0x3e4b5799	0.19857635
56	0x3c820fd1	0.015876682
57	0xbe9292c8	-0.2862761
58	0xbe74bc42	-0.2389994
59	0x3e2abddb	0.16673987
60	0xbe56c7fd	-0.20974727
61	0xbdd498a0	-0.103806734
62	0x3e6a2b99	0.22868194
63	0xbde225b7	-0.1104235
64	0x3c7e80c5	0.015533631
65	0x3cfbefb7	0.030753953
66	0x3e196dda	0.14983311
67	0xbc7a001a	-0.015258813
68	0xbdc1b399	-0.09458084
69	0xbd34538b	-0.044024985
70	0xbd8a168f	-0.06742584
71	0x3d70f16d	0.05882399
72	0xbd797a23	-0.060907494
73	0xbd9d55a4	-0.0768235
74	0xbe1a06d8	-0.15041673
75	0xbe0e13c4	-0.13874727
76	0xbea4771b	-0.3212212
77	0x3ce8289b	0.028339675
78	0xbeb78d37	-0.35849926
79	0x3e491f23	0.19640784
80	0x3b92cde7	0.004480112
81	0x3e600dcb	0.21880262
82	0x3db519ae	0.08842789
83	0x3de8e825	0.11372403
84	0xbdd4b5d4	-0.103862435
85	0x3e9824b8	0.29715514
86	0xbeb96b00	-0.36214447
87	0xbdbdd102	-0.09268381
88	0x3ca89085	0.020576725
89	0xbd8db8bd	-0.06920002
90	0x3e9e811b	0.30957875
91	0x3d24d217	0.04023942
92	0x3dd3a110	0.103334546
93	0xbea04b68	-0.3130753
94	0x3e65dbc9	0.22447123
95	0x3e1f2dbd	0.15544792
96	0x3c4bf69f	0.012448936
97	0x3ba96ae7	0.0051702145
98	0x3e14283b	0.14468472
99	0xbe46125d	-0.19342943
100	0x3ea004f2	0.31253773
101	0xbe753ef6	-0.23949799
102	0x3e8126b0	0.2522483
103	0xbeb644f0	-0.3559947
104	0x3e4ce432	0.20008925
105	0x3ddd6830	0.10810888
106	0xbd7ab595	-0.061208326
107	0xbec951d3	-0.3932024
108	0x3de20d14	0.11037651
109	0xbe0d0946	-0.13773069
110	0xbe99da7c	-0.30049503
111	0xbe978119	-0.2959068
112	0xbe3bbf18	-0.18334615
113	0xbd7a4474	-0.06110044
114	0xbdb2c86c	-0.08729634
115	0xbe5c4754	-0.21511585
116	0xbe24520e	-0.16046926
117	0x3e51d448	0.20491135
118	0xbe8e91ca	-0.27845603
119	0xbdeaebda	-0.11470766
120	0xbe89b73a	-0.26897603
121	0x3e151d7a	0.14562026
122	0x3dae1c4b	0.0850149
123	0xbdca9b2a	-0.098928764
124	0xbe8f23e4	-0.2795707
125	0xbd18df79	-0.037322495
126	0x3d8bd9c0	0.06828642
127	0xbea1b478	-0.31583
128	0x3e315d5f	0.17320774
129	0xbe88ed1b	-0.26743397
130	0xbe37e966	-0.17960128
131	0x3ea4f581	0.32218555
132	0xbe9b813b	-0.30372033
133	0xbe09d377	-0.13459574
134	0x3eb23b2b	0.34810767
135	0xbe5501bf	-0.20801447
136	0xbe7524e6	-0.23939857
137	0xbd86b16d	-0.0657681
138	0xbe3f52be	-0.18683907
139	0xbdf9d12b	-0.12198099
140	0x3e35cbef	0.17753576
141	0x3e776831	0.2416084
142	0x3e286c86	0.16447648
143	0x3e58d682	0.21175578
144	0x3de08575	0.10962955
145	0x3ec0cc3b	0.37655815
146	0xbd77fdfc	-0.060544953
147	0xbd545818	-0.051841825
148	0xbe78b522	-0.24287847
149	0xbd926e88	-0.071499884
150	0x3e757e01	0.23973848
151	0x3e5e1b16	0.2169002
152	0x3e8be6c6	0.27324504
153	0xbdfd7df6	-0.12377541
154	0x3e828345	0.25490776
155	0xbea34c76	-0.31894273
156	0xbe207b43	-0.1567202
157	0x3e01d0bb	0.1267728
158	0xbeb04e41	-0.34434703
159	0xba90372c	-0.0011002771
160	0x3d0ddd73	0.03463502
161	0x3d530610	0.051519454
162	0xbe6f65ef	-0.23378728
163	0xbe10081d	-0.14065595
164	0xbebe017c	-0.37110507
165	0xbee311dd	-0.44349566
166	0xbc0cba89	-0.008589395
167	0x3e8b7151	0.2723489
168	0x3e964806	0.29351825
169	0xbe0078f6	-0.12546143
170	0x3e451a2c	0.19248265
171	0xbd2a4f10	-0.041579306
172	0x3e3bf00a	0.18353286
173	0x3cdd60c0	0.027023673
174	0xbe6fc773	-0.23415928
175	0xbddb5b57	-0.10710781
176	0x3d03fc53	0.032223057
177	0x3e8fd721	0.28093818
178	0xbe367fa3	-0.17822127
179	0xbdfe4b90	-0.12416756
180	0x3e5b88c5	0.21438892
181	0xbd584d54	-0.05280812
182	0xbcbd87d2	-0.023136053
183	0x3e9779fe	0.2958526
184	0x3ebd1269	0.36928108
185	0x3dece2be	0.11566685
186	0x3e1b55c4	0.15169436
187	0x3ef28360	0.47365856
188	0xbe6260d3	-0.22107248
189	0xbdafe49c	-0.08588526
190	0xbd8571c8	-0.06515843
191	0x3e9b4b7b	0.30331025
192	0xbb8ce915	-0.0043002465
193	0x3eb0ed5c	0.3455609
194	0x3e7b57ca	0.24545208
195	0xbce706f4	-0.028201558
196	0x3e7aec0e	0.2450411
197	0x3de8a8f3	0.113603495
198	0x3ec5e25b	0.38649258
199	0xbbe8ec59	-0.007108253
200	0x3e222319	0.15833701
201	0x3e639aed	0.22227068
202	0x3cf834c5	0.0302986
203	0x3e90bdc3	0.28269777
204	0xbdf12304	-0.11774257
205	0x3eae73b3	0.34072646
206	0x3dae9482	0.08524419
207	0x3e53e5a6	0.20693073
208	0x3e954a1a	0.29158098
209	0xbe83ec3e	-0.25766176
210	0x3e3b4624	0.18288475
211	0xbd935548	-0.071940005
212	0x3e8f62ca	0.28005058
213	0xbe2b4e11	-0.16728999
214	0x3e33f0ec	0.17572373
215	0x3eb5b8d2	0.3549257
216	0x3c1eb0d9	0.009685718
217	0xbd737a3f	-0.059442755
218	0x3e205fb3	0.15661506
219	0xbe22cba2	-0.15897992
220	0xbdd91b12	-0.106008664
221	0xbde54c55	-0.111962
222	0xbdfbe036	-0.12298624
223	0xbe1e5cd7	-0.15465103
224	0xbea911e7	-0.3302147
225	0x3e8ff503	0.28116617
226	0x3e1a6667	0.15078126
227	0xbec16316	-0.3777091
228	0x3e2c6765	0.16836317
229	0xbd6b93cd	-0.057514
230	0x3e4d69ac	0.20059842
231	0x3e998eb1	0.29991677
232	0xbe9ff87f	-0.31244275
233	0xbd1d6844	-0.038429514
234	0x3da56013	0.08074965
235	0x3e4d9e56	0.20079932
236	0xbe02810f	-0.12744544
237	0xbcdb6c39	-0.026785003
238	0xbdece089	-0.11566264
239	0x3e629dbd	0.22130485
240	0xbd645cf9	-0.055752728
241	0x3eb2ed55	0.34946695
242	0xbe6d9c82	-0.23204234
243	0x3e38c7a2	0.18044904
244	0x3e353c96	0.17698893
245	0x3dbd95bf	0.092570774
246	0x3db22e27	0.08700209
247	0xbe594f15	-0.21221574
248	0x3cc1a2cb	0.023637196
249	0xbcf83ee7	-0.030303432
250	0xbde5905c	-0.11209175
251	0xbea95bbe	-0.33077806
252	0xbd1cb958	-0.038262695
253	0xbd134a76	-0.035959683
254	0x3e68c266	0.22730407
255	0xbe0f1718	-0.13973653

linear1.bias f4 [256]
0	0xbe842214	-0.2580725
1	0x3e439085	0.19098099
2	0x3dcc2306	0.09967618
3	0xbd2343a7	-0.03985944
4	0x3dada8c4	0.08479455
5	0xbe46538b	-0.19367807
6	0xbd854655	-0.065075554
7	0x3e44ebad	0.19230528
8	0xbe390c70	-0.18071151
9	0xbd91d658	-0.07120961
10	0xbe32044f	-0.17384456
11	0xbd9a77c2	-0.07542373
12	0x3d9d6c05	0.07686619
13	0x3e4f17b6	0.20223889
14	0x3d8d6a7a	0.069050744
15	0xbe5183f0	-0.20460486
16	0x3f29f532	0.66389763
17	0x3e78c82a	0.24295107
18	0xbded353c	-0.11582419
19	0x3ed0949a	0.40738374
20	0x3d127f9c	0.03576623
21	0x3ebc7614	0.36808836
22	0x3d8125b6	0.06306021
23	0xbdda0ea7	-0.10647326
24	0xbce2cdd9	-0.027686046
25	0x3de66fad	0.11251769
26	0x3d90beb2	0.07067622
27	0xbe0e39b6	-0.13889202
28	0x3d7767df	0.060401794
29	0x3cfa72cd	0.03057232
30	0x3c96aec3	0.01839388
31	0xbe891f48	-0.26781678
32	0x3f8b5c29	1.08875
33	0x3e0cf056	0.13763556
34	0x3ea6ddd1	0.32591107
35	0xbeb574f6	-0.35440797
36	0x3d27f579	0.041005585
37	0xbea6c07a	-0.32568723
38	0x3e6dd4e9	0.2322575
39	0xbe390346	-0.18067655
40	0x3de95f6f	0.11395156
41	0x3d8622ca	0.06549604
42	0x3f628eb1	0.8849898
43	0xbe10e02b	-0.14148013
44	0x3c8e258f	0.017351894
45	0x3e2f42cc	0.17115325
46	0x3e8bff07	0.27343008
47	0xbea0486c	-0.31305254
48	0xbdf7961b	-0.12089177
49	0x3e577cb5	0.21043666
50	0x3dd6c978	0.10487646
51	0x3e6aff15	0.22948869
52	0x3e544cb4	0.20732385
53	0x3b5357f7	0.0032248476
54	0x3f08019f	0.53127474
55	0x3e191c6b	0.14952247
56	0xbdd86d1a	-0.105676845
57	0x3e8c0c13	0.27352962
58	0x3ef3b44a	0.47598487
59	0xbe61cbd2	-0.22050408
60	0xbe4eb80b	-0.20187394
61	0x3e9e71b7	0.30946133
62	0x3dffb33e	0.124853596
63	0x3ee008ba	0.43756658
64	0x3ecdfb3a	0.40230733
65	0x3ef1f83e	0.47259706
66	0x3cf8c604	0.030367859
67	0x3eb794f9	0.35855845
68	0xbdaf056e	-0.085459575
69	0x3f72f727	0.94908375
70	0x3e87a4e4	0.2649299
71	0x3f0592dc	0.52177215
72	0x3eb94296	0.36183614
73	0x3ea5d915	0.32392183
74	0x3d070f93	0.032973837
75	0x3d9d1caa	0.07671483
76	0x3f240a12	0.64077866
77	0x3dbe1f8f	0.09283363
78	0xbdb00aaa	-0.08595784
79	0x3e09fa43	0.13474374
80	0x3eb229be	0.34797472
81	0xbdb6431e	-0.0889952
82	0x3dcb7868	0.09935075
83	0x3e995981	0.299511
84	0xbdb75dee	-0.089534625
85	0x3dcf5b38	0.101248205
86	0x3ea3b369	0.31972817
87	0xbb779948	-0.0037780572
88	0x3d7e1e34	0.062040523
89	0xbe81009e	-0.25195783
90	0x3d1c07b9	0.038093302
91	0xbd6e4770	-0.058173597
92	0x3f89bdb9	1.0761024
93	0xbdcd3a9b	-0.10020944
94	0xbdba3eb4	-0.09093991
95	0xbe592ed3	-0.21209268
96	0xbe5579d2	-0.20847252
97	0x3e8e1436	0.27749795
98	0x3e4cc30c	0.1999628
99	0x3d9013aa	0.070350006
100	0x3f775911	0.9662028
101	0x3be52063	0.006992386
102	0xbe5e0bd2	-0.21684197
103	0xbebaac38	-0.36459517
104	0xbd58f337	-0.052966323
105	0xbd2ce1c1	-0.042207483
106	0x3edc1fb9	0.42992952
107	0x3d992d96	0.07479398
108	0x3e0138a2	0.1261926
109	0xbb04fc6f	-0.0020292064
110	0xbdb3b09d	-0.08773921
111	0xbe676fd9	-0.2260126
112	0x3e93fd00	0.2890396
113	0x3d79ef6e	0.061019354
114	0xbe448594	-0.19191581
115	0xbe4c9d38	-0.19981849
116	0x3f0c2b78	0.5475383
117	0xbcbb0dc1	-0.022833707
118	0x3dafba0e	0.08580409
119	0xbe5a70ee	-0.21332142
120	0x3cf01ab2	0.029309604
121	0x3d8fcde7	0.07021695
122	0x3d44b390	0.048022807
123	0x3ed53778	0.41643882
124	0x3e62bda0	0.22142649
125	0x3db2922e	0.08719288
126	0x3da97ec7	0.08276134
127	0x3bcff3c4	0.006346198
128	0xbe4e0b9b	-0.20121615
129	0x3d10bd0f	0.03533655
130	0x3cfeeb09	0.031117933
131	0xbe5c6cc3	-0.21525864
132	0x3dc1f71d	0.09470961
133	0xbd799d51	-0.060941044
134	0xbdb2a607	-0.087230735
135	0x3d89d273	0.06729593
136	0xbe3061f4	-0.17224866
137	0xbe4e1ff0	-0.2012937
138	0xbe5b7710	-0.21432137
139	0xbe8c0d36	-0.2735383
140	0xbe2e602e	-0.17028877
141	0xbe99dc28	-0.30050778
142	0x3e479311	0.19489695
143	0x3f7a69f3	0.97817916
144	0x3e83e68c	0.2576183
145	0x3e96e858	0.2947414
146	0xbe618e32	-0.220269
147	0xbe4b5fc6	-0.19860753
148	0xbe992777	-0.29912922
149	0x3e582965	0.21109541
150	0x3e043f1b	0.12914698
151	0xbe4aada4	-0.19792801
152	0xbdebd148	-0.115145266
153	0x3f00562b	0.5013148
154	0x3eb894cf	0.36051032
155	0x3e737c4c	0.23777884
156	0x3ea3b3d9	0.3197315
157	0x3e9eae5a	0.30992395
158	0x3db0a814	0.08625808
159	0xbd2f8dc9	-0.042859826
160	0x3f0e5c88	0.5560994
161	0x3e3e5527	0.1858717
162	0xbd89b228	-0.06723434
163	0xbea0507c	-0.31311405
164	0xbdd5eee5	-0.10445956
165	0xbe005548	-0.12532532
166	0xbd593088	-0.0530248
167	0x3ced3ae5	0.028958747
168	0xbe049736	-0.12948307
169	0x3e640ebd	0.22271247
170	0xbdffa645	-0.12482885
171	0xbdcb6247	-0.09930854
172	0xbe1d25c1	-0.15346433
173	0x3db46f24	0.08810261
174	0xbe8e5367	-0.27798006
175	0xbe06e1c2	-0.13172057
176	0xbd8be083	-0.068299316
177	0x3f2ac826	0.6671165
178	0x3e11ad98	0.14226377
179	0xbe7828d1	-0.2423432
180	0x3d143aa6	0.036188744
181	0xbd35c1c9	-0.04437426
182	0xbce475f5	-0.027888278
183	0xbe0815f0	-0.13289618
184	0x3ef767d7	0.4832141
185	0xbe8772ed	-0.2645487
186	0xbe0597ce	-0.1304619
187	0x3e016b06	0.12638482
188	0x3e95857d	0.29203406
189	0x3d2c06ef	0.0419988
190	0xbe275a8c	-0.16343135
191	0x3e779304	0.24177176
192	0xbe0afd6e	-0.13573238
193	0xbe99d62c	-0.30046213
194	0x3e23e3a2	0.16004804
195	0x3e03b264	0.1286102
196	0x3ecdf691	0.40227178
197	0x3dcb0b00	0.099142075
198	0x3bcbb4b8	0.0062166117
199	0x3dcdd38e	0.100501165
200	0xbd4053d6	-0.046954952
201	0xbd93de9f	-0.07220196
202	0x3d63d9d5	0.055627663
203	0x3df8e773	0.121535204
204	0xbd59f6ed	-0.053214002
205	0x3c0f8842	0.008760514
206	0xbe01f68f	-0.12691711
207	0xbda47b30	-0.08031309
208	0xbe9b7395	-0.3036162
209	0x3d8edc33	0.069755934
210	0x3eadfba4	0.3398105
211	0xbe6e805f	-0.23291157
212	0x3d2d973f	0.042380568
213	0xbe729884	-0.23690993
214	0xbe601d2f	-0.21886133
215	0x3d3f6eb2	0.046736427
216	0xbdc4f46c	-0.09616932
217	0x3ead3cfa	0.33835584
218	0x3e4f9438	0.20271385
219	0x3da71981	0.08159161
220	0x3ab8c4f5	0.0014096784
221	0x3df00cd5	0.117211975
222	0x3ecfdb29	0.40596893
223	0xbebe384d	-0.3715233
224	0xbddb0ad0	-0.10695422
225	0xbd470ea9	-0.048597965
226	0xbe6df40c	-0.23237628
227	0x3eb0e5db	0.34550366
228	0xbe23c2b3	-0.1599224
229	0x3ef95b35	0.48702398
230	0x3d5dc429	0.05414215
231	0xbd14c7a2	-0.036323197
232	0xbddf6d19	-0.109094806
233	0x3e8e12e0	0.27748775
234	0xbc81ed26	-0.015860151
235	0x3f0eef12	0.5583354
236	0xbe828f66	-0.2550003
237	0xbdbfe67e	-0.09370135
238	0x3effcfa3	0.49963102
239	0x3e91aada	0.28450662
240	0x3e05602f	0.13024972
241	0x3f876021	1.0576211
242	0x3f402c45	0.7506755
243	0x3d541fdf	0.051788207
244	0xbd8d29b3	-0.06892719
245	0xbbdfa35d	-0.0068248943
246	0x3d64dc84	0.055874363
247	0xbe3ddca5	-0.185412
248	0x3e85ff1c	0.26171196
249	0xbe817fc2	-0.25292784
250	0x3c947e17	0.01812653
251	0x3e738642	0.23781684
252	0xbca7c8dd	-0.020481521
253	0xbd9e9f02	-0.07745172
254	0x3e82208f	0.25415465
255	0x3db99225	0.09061078

linear2.weight f4 [3, 256]
0	0x3e641134	0.22272187
1	0xbe795357	-0.24348198
2	0x3d5fb069	0.054611597
3	0xbd76e5d9	-0.060277794
4	0x3c213501	0.009839297
5	0xbd063844	-0.032768503
6	0xbb5696d0	-0.00327437
7	0x3d8f05e0	0.069835424
8	0xbcf44260	-0.029816806
9	0x3d7962f1	0.060885374
10	0x39e8bd00	0.00044391304
11	0xbde2d6f1	-0.11076153
12	0x3da19db5	0.07891408
13	0xbe594649	-0.21218218
14	0xbc846853	-0.016163027
15	0x3e39e775	0.181547
16	0x3c465240	0.012104571
17	0xbe0aa2ea	-0.1353871
18	0xbea64fc4	-0.3248273
19	0x3e1605fa	0.14650717
20	0xbb29ecf5	-0.002592859
21	0xbd70c9bd	-0.058786143
22	0x3e025f1e	0.12731597
23	0x3daa99a8	0.08330089
24	0xbe32b9ba	-0.17453662
25	0xbe4c558f	-0.19954513
26	0x3bdd047e	0.0067449203
27	0x3e8175cb	0.2528518
28	0xbedab474	-0.427158
29	0x3b123f01	0.0022315385
30	0x3d6da021	0.05801404
31	0xbcf2703c	-0.029594533
32	0x3d989cdf	0.07451796
33	0x3e292d28	0.16521132
34	0x3d3ce7c9	0.046119485
35	0xbccd2a25	-0.02504451
36	0x3d9b782e	0.07591282
37	0x3d171c26	0.03689208
38	0xbcc97cd6	-0.02459566
39	0xba318ccc	-0.00067729945
40	0xbc8e54b7	-0.01737438
41	0x3cb1c6cf	0.021701245
42	0x3daba352	0.0838076
43	0x3d418e41	0.047254805
44	0xbd05ee26	-0.03269782
45	0x3a8fa036	0.0010957781
46	0x3e424a77	0.18973719
47	0xbcf28721	-0.02960545
48	0xbe15f27e	-0.14643285
49	0xbe1607ed	-0.14651461
50	0xbe684c17	-0.22685276
51	0x3de2dd32	0.11077346
52	0xbd502711	-0.050818507
53	0x3e1c42da	0.15259877
54	0x3cc98e3c	0.024603955
55	0x3c4b9f29	0.012428083
56	0xbe625220	-0.2210164
57	0x3e077fdf	0.13232373
58	0x3e249beb	0.16075103
59	0x3dd21ad5	0.10259024
60	0xbe3d4603	-0.18483739
61	0x3e2a6b7a	0.16642562
62	0xbbdcfee4	-0.0067442525
63	0xbdd56934	-0.104204565
64	0x3d74e610	0.059789717
65	0x3dd446f2	0.10365094
66	0xbe0c8ea2	-0.13726285
67	0xbd8403a3	-0.06446006
68	0xbe9cb5fb	-0.3060759
69	0x3e737fe8	0.23779261
70	0x3d8b6f08	0.06808287
71	0x3d441ff0	0.04788202
72	0xbddd03c9	-0.107917376
73	0x3d2b55e4	0.04182996
74	0xbcba679b	-0.022754481
75	0xbcbe3f2d	-0.023223484
76	0x3e6fffad	0.23437376
77	0xbe48bf4e	-0.19604227
78	0x3cd5d7a1	0.026103796
79	0x3dc9417a	0.09826942
80	0x3dad6077	0.08465665
81	0xbe1bbc0c	-0.15208453
82	0xbe168457	-0.14698921
83	0xbc453a0d	-0.012037766
84	0xbe0ddf15	-0.1385463
85	0xbe0119ee	-0.12607548
86	0x3e2438b4	0.16037256
87	0x3dd33e58	0.103146255
88	0x3e83d0aa	0.25745136
89	0x3bbf4c1c	0.0058379304
90	0x3e0804d2	0.13283089
91	0xbe69f20b	-0.22846238
92	0x3da04b42	0.07826854
93	0x3d52ff30	0.051512897
94	0x3d3447bf	0.044013735
95	0xbb5d0794	-0.003372644
96	0xbc290280	-0.010315537
97	0x3d48f76e	0.049064092
98	0xbcf4701c	-0.029838614
99	0xbeaedc3f	-0.3415241
100	0x3db0a54b	0.08625277
101	0xbe478da8	-0.19487631
102	0xbb8fd2c3	-0.0043891384
103	0x3c21d02a	0.00987629
104	0xbdfa92f1	-0.12235058
105	0xbd933d1d	-0.07189391
106	0x3e167937	0.14694677
107	0xbdbc9f63	-0.09210088
108	0xbe941a86	-0.28926486
109	0xbe8405b4	-0.257856
110	0x3e1c3e0d	0.15258045
111	0xbd1036fe	-0.035208695
112	0x3e03b801	0.1286316
113	0x3d9563a3	0.07294395
114	0xbd9192d7	-0.071080856
115	0xbd23f5ce	-0.04002934
116	0xbbb3c0ed	-0.005485645
117	0xbdb2542a	-0.08707459
118	0xbe0af944	-0.1357165
119	0x3e74a0c5	0.23889454
120	0x3d696e17	0.056989755
121	0x3e58343d	0.21113677
122	0x3d8b013f	0.06787347
123	0x3e09ed1b	0.13469355
124	0xbe1f5e56	-0.1556333
125	0xbe27527a	-0.16340056
126	0x3debfa04	0.11522296
127	0xbd6ede7e	-0.058317654
128	0xbca9f290	-0.020745546
129	0xbab51781	-0.0013816209
130	0x3d9d4e36	0.07680933
131	0xbdb45d67	-0.088068776
132	0xbe5ff385	-0.21870239
133	0xbe801f58	-0.25023913
134	0x3c86eaf9	0.016469466
135	0xbcc68a26	-0.024235796
136	0x3d929f85	0.07159332
137	0xbbc2ceaf	-0.0059450488
138	0x3ca76b4a	0.020436902
139	0xbbc3ce70	-0.005975537
140	0xbd9853eb	-0.07437881
141	0x3cad67e3	0.021167701
142	0x3e136116	0.14392504
143	0x3e2e09c6	0.16995916
144	0x3d29c4a6	0.041447304
145	0x3d390413	0.0451699
146	0xbd3d938a	-0.046283282
147	0x3dd29af0	0.10283458
148	0xbd0ff6d4	-0.035147503
149	0x3deb8673	0.115002535
150	0x3ac60a81	0.0015109332
151	0xbbd15b6f	-0.0063890736
152	0xbd2bf6c1	-0.04198337
153	0x3dbacfa8	0.091216385
154	0xbddbce9c	-0.10732767
155	0xbdc23e73	-0.094845675
156	0xbe579f08	-0.2105676
157	0x3db1b56d	0.08677182
158	0xbd02b074	-0.03190656
159	0x3dddfddc	0.108394355
160	0x3ddfe381	0.10932065
161	0x3e34da72	0.17661455
162	0xbc3301d8	-0.010925733
163	0xbdea0652	-0.11426987
164	0x3ce71e5a	0.028212715
165	0x3d703a48	0.05864933
166	0xbd4ad702	-0.049521454
167	0x3e36793c	0.17819685
168	0x3d337599	0.04381332
169	0x3e0935e2	0.13399461
170	0x3d9ea0df	0.077455275
171	0xbce9b533	-0.028528785
172	0xbe29fa84	-0.1659947
173	0x3d34da8a	0.044153728
174	0xbde47236	-0.111545965
175	0x3b138307	0.0022508518
176	0xbdb898be	-0.09013508
177	0x3e3acbb3	0.18241768
178	0xbd452f9b	-0.048141103
179	0x3e2a4853	0.16629152
180	0x3dd0c7c3	0.101943515
181	0x3d811697	0.06303137
182	0xbe873d33	-0.2641388
183	0xbdae0482	-0.084969535
184	0x3e09d651	0.13460661
185	0x3d74ac44	0.059734598
186	0xbca9d37c	-0.020730726
187	0x3dab5f32	0.083677664
188	0xbdb544ed	-0.08851037
189	0xbcbec9b0	-0.023289531
190	0xbde7b8fd	-0.113145806
191	0x38a18762	7.702295e-05
192	0x3b09b288	0.0021010954
193	0xbe04e124	-0.1297651
194	0x3e059b29	0.1304747
195	0xbdf921d4	-0.12164655
196	0xbe6b4567	-0.22975694
197	0xbe92bdad	-0.28660336
198	0x3d3d91c3	0.046281587
199	0x3d77100d	0.06031804
200	0x3ddbe001	0.10736085
201	0x3dbfb1d7	0.09360092
202	0xbe087a99	-0.13328017
203	0x3d6e47a7	0.0581738
204	0xbd8fb684	-0.07017234
205	0xba017221	-0.0004937966
206	0xbc61a8ce	-0.013773156
207	0x3d949bfb	0.072563134
208	0x3d9c6799	0.07636947
209	0xbd14d385	-0.036334533
210	0xbe18d0ae	-0.14923355
211	0x3d59e166	0.053193472
212	0x3e0c666a	0.13710943
213	0xbe666dff	-0.22502898
214	0xbd2f9288	-0.042864352
215	0xbd930be3	-0.071800016
216	0xbe8dbedb	-0.27684674
217	0x3de616aa	0.112347916
218	0xbbaae252	-0.0052149678
219	0xbe38928e	-0.18024656
220	0x3db47f18	0.08813304
221	0x3d821f9d	0.06353686
222	0x3dd1e42a	0.10248597
223	0x3c03c98c	0.008043658
224	0x3dc1dce4	0.0946596
225	0xbd139fb9	-0.036040995
226	0xbbf84616	-0.0075767143
227	0x3dbff105	0.09372143
228	0xbc99ec56	-0.018789452
229	0x3dd62f3b	0.10458227
230	0xbdbe4693	-0.09290805
231	0x3e195582	0.14974025
232	0x3d61163d	0.05495285
233	0x3c8783fa	0.016542424
234	0xbe446791	-0.19180132
235	0x3e000a00	0.12503815
236	0x3cb2be88	0.021819368
237	0x3d29e981	0.041482452
238	0x3d907e2e	0.07055317
239	0x3de9d604	0.11417773
240	0x3d663fdc	0.056213245
241	0x3e0553ed	0.13020296
242	0x3c447de9	0.01199291
243	0x3c403f8b	0.0117339
244	0x3e1efedb	0.15526907
245	0x3dd315d4	0.10306898
246	0x3da23afe	0.07921408
247	0xbd0032b6	-0.03129836
248	0x3dd188c2	0.102311626
249	0x3d16ad64	0.036786452
250	0xbcd4f92c	-0.02599772
251	0xbc521bb1	-0.012823985
252	0x3d46f80c	0.0485764
253	0x3d90e081	0.07074071
254	0x3dd5685e	0.10420297
255	0x3ded737b	0.11594292

linear2.bias f4 [3]
0	0x3ddec15a	0.10876723
1	0x3d914776	0.07093708
2	0x3de35a0b	0.11101159
