model/model.pth (torch, 17111 bytes, 4 tensors)

linear1.weight f4 [256, 11]
000000 f3 b0 a0 be fa a1 ae 3d ec a4 14 3d 17 cd 7e 3e
       -0.31385002 0.08526988 0.036290094 0.24882923
000010 19 5e 70 be e1 96 b6 bd c2 5e 8d 3e 11 66 ea 3d
       -0.23473395 -0.089154966 0.27611357 0.11445249
000020 03 88 00 be 6c f8 2d 3e 04 13 79 3e ef 98 7d be
       -0.12551884 0.16989297 0.2432366 -0.24765371
000030 34 18 6d be a0 a1 26 3d 1e 88 f1 bd ad 3f ec bc
       -0.23153764 0.04068148 -0.117935404 -0.028838957
000040 90 8e da 3c 6f de 1f be 7b a5 84 bc 3a 09 ec bd
       0.026679307 -0.15612195 -0.016192188 -0.11525197
000050 13 dc 00 be c8 a4 ad bd d9 e0 76 bd 9c 3e 6f 3e
       -0.12583952 -0.08478695 -0.060273025 0.23363727
000060 4a 5c 39 3d 80 d6 8a 3e 43 9e 0c be 68 3e 40 3e
       0.04525403 0.27116776 -0.13732247 0.18773806
000070 91 94 20 be 93 e3 92 3e ac ef bf 3d c2 84 69 bc
       -0.15681674 0.2868925 0.09371886 -0.014252843
000080 f6 c5 43 be 61 25 c4 3d 31 24 fd 3d 32 41 8c 3e
       -0.19118485 0.09577442 0.123604186 0.2739349
000090 f1 31 86 3e 4a b3 39 be 57 5d 2b 3e 1d e7 e0 bc
       0.26209977 -0.181348 0.16734825 -0.027453953
0000a0 7e c0 b9 3d f3 d7 45 be 93 7c f5 bd ea 1f 86 be
       0.09069918 -0.1932066 -0.11986651 -0.26196223
0000b0 8b ce 8f be e3 3d 1f bd f0 26 a5 bc b8 5d 53 be
       -0.28087267 -0.03887738 -0.020160168 -0.2064122
0000c0 c1 e9 09 be 58 f1 00 3d ec b9 ee bc 8b 35 62 3e
       -0.13468076 0.031480163 -0.029141389 0.22090738
0000d0 e1 43 44 be 72 7a 01 bc 02 a7 94 3e b8 19 97 be
       -0.19166519 -0.007902728 0.29033667 -0.2951181
0000e0 2c 37 9f 3d 18 c1 89 bd a8 e9 69 3d 84 4b 2b 3d
       0.07774195 -0.06726283 0.057107598 0.041820064
0000f0 ae 51 42 be 94 b8 ce bd b2 3a 45 be 3e 5a 50 be
       -0.18976471 -0.10093799 -0.19260672 -0.20346925
000100 ef 4a ad 3d a8 de c2 3d c7 5c 38 3e e7 d0 d2 3d
       0.08461558 0.095151246 0.18004142 0.10293751
000110 32 ca 73 3e 11 40 2b be 41 3d 90 3e 3a 77 85 3d
       0.238076 -0.16723658 0.28171733 0.06516881
000120 39 41 e5 3b b9 1e 35 3e 40 c5 88 bd cf 48 80 be
       0.0069963005 0.17687501 -0.066782475 -0.2505555
000130 d0 2d f1 3d 1d 4d 15 be 80 ce 20 bc a4 91 33 3e
       0.11776316 -0.14580198 -0.009814858 0.17536026
000140 24 3c 84 3e 69 9d 7e be 9f cc 82 be 8f e0 84 be
       0.25827134 -0.24864735 -0.25546739 -0.25952575
000150 ee 6d 46 be dd f0 4e 3d e6 5b c5 3d e0 ab 13 3d
       -0.19377872 0.050522674 0.09636669 0.036052585
000160 a0 5a 26 bc 30 d9 73 3d 80 31 3e 3c 88 48 44 3e
       -0.010153443 0.059533298 0.011608481 0.19168293
000170 7e 82 ca 3d 8a 20 2d be bc 2a 41 be 4f 35 0d 3e
       0.09888171 -0.16906944 -0.18863958 0.13789867
000180 97 e0 92 be f0 31 44 be a0 15 4a 3d 4a 3b 2e 3e
       -0.28686973 -0.19159675 0.04933703 0.17014804
000190 4f b6 f2 3d c7 38 1e 3e 33 fc 11 3e 8b 58 8a 3d
       0.11851179 0.15451346 0.14256363 0.067551695
0001a0 4d 4b 2a be dc c6 1b be 5d b7 f8 3b 75 1a 3f bb
       -0.16630287 -0.15212578 0.007590218 -0.0029160057
0001b0 2b d2 d7 bd a2 92 21 3e b1 67 30 3e d5 c4 78 be
       -0.10538133 0.15778592 0.17227055 -0.24293835
0001c0 c2 1e 91 3e e9 bb 3b 3e 45 a2 75 3e 3a 02 87 3e
       0.2834378 0.18333401 0.23987682 0.26368886
0001d0 7a 5a 98 3e 7e 24 57 be 1e f9 97 3c a8 c8 81 be
       0.29756528 -0.21010014 0.018551406 -0.253484
0001e0 30 94 4c 3e 47 eb 44 3e 22 2c 85 3e 0f 1b 25 be
       0.19978404 0.19230376 0.26010233 -0.16123603
0001f0 b6 1b fd bd aa 84 eb bd a0 04 4a 3e fd 3f 54 3e
       -0.12358801 -0.11499913 0.19728327 0.20727535
000200 57 1a 47 be 2d 94 4e 3e 62 5e 6d 3d 60 d8 08 bd
       -0.19443642 0.20173712 0.05795134 -0.033409476
000210 33 e6 18 be 94 b3 e4 bd ba 3d 0e 3e 8d 19 83 3e
       -0.14931564 -0.11167064 0.13890734 0.2560543
000220 f3 cd c5 3c 37 13 21 3e 85 a5 5d 3e 1a 30 1b 3e
       0.024146056 0.15729986 0.21645172 0.15155068
000230 8c a8 85 be b4 f0 59 3d c0 ff 26 bc c2 32 4a be
       -0.26105154 0.053208068 -0.0101928115 -0.19745925
000240 7d f5 a6 3d c3 9c 19 3e 6e 97 9c 3e c0 52 4e 3e
       0.08152292 0.15001206 0.30584282 0.20148754
000250 60 c0 5d 3e b4 fd 86 3d c7 d4 8f be f2 7e 04 3e
       0.21655416 0.06591359 -0.28092024 0.12939051
000260 b1 11 8c 3e d4 f8 77 be f2 ea 64 be 40 25 9d bd
       0.27357247 -0.24216014 -0.2235525 -0.076731205
000270 bd 83 a1 bd 56 c3 2a 3d ce b0 55 be 79 a8 37 be
       -0.07886455 0.041690193 -0.20868227 -0.17935361
000280 8e c9 95 3b a4 41 20 bd c5 3c 2a be 73 12 65 3e
       0.0045711463 -0.0391251 -0.16624744 0.22370319
000290 b6 55 4b be 00 d8 96 3a a8 f3 6f bd 92 93 c7 bd
       -0.19856915 0.0011508465 -0.058581978 -0.09744944
0002a0 5d 72 98 be 30 ae 2b 3e c8 b6 3e 3e e0 25 38 3e
       -0.29774752 0.16765666 0.18624413 0.17983198
0002b0 94 3a b8 bd 2d 41 2d be a0 3f 7b 3c 10 46 f5 bc
       -0.08995548 -0.16919394 0.015334994 -0.029940635
0002c0 92 6f 29 3c 07 25 9d be 99 b7 66 3e 93 e9 11 bd
       0.010341542 -0.30692312 0.22530974 -0.035623144
0002d0 ff 43 2d 3e af 58 71 3e 83 31 41 3e dd 80 24 3e
       0.1692047 0.23568986 0.18866543 0.16064782
0002e0 4d 51 99 bd 06 9f 00 be 52 25 89 3e 95 98 69 3e
       -0.0748621 -0.12560663 0.26786286 0.22812112
0002f0 02 00 4e be 78 e6 5e 3e 4d 6f 6c be 93 bd 65 3d
       -0.2011719 0.21767604 -0.23089333 0.056088995
000300 23 e9 bd 3d fa a1 3d be ac 19 40 be 40 c0 4f be
       0.09272983 -0.1851882 -0.18759793 -0.20288181
000310 03 e3 e8 3d a0 5a 0f bc cd 7e 92 3d 6e 78 f4 bd
       0.11371424 -0.008749634 0.071530916 -0.11937033
000320 2c e9 19 be 4a c8 e9 3c a4 f9 93 be ef 73 3f 3d
       -0.15030354 0.028537888 -0.28901398 0.046741422
000330 b6 ca 97 be ea c6 bc 3d 2b 17 15 bc a5 17 3c 3e
       -0.29646844 0.09217627 -0.009099762 0.18368395
000340 98 75 5d 3d ac 8e 61 3e 08 62 23 be a4 79 43 be
       0.054067224 0.22027081 -0.15955365 -0.19089371
000350 94 5f 10 3e e8 c6 70 be d8 eb 0c bd 34 05 78 be
       0.1409896 -0.23513377 -0.034404606 -0.24220735
000360 60 a8 01 bd 90 83 13 be 9f 54 c4 bd 3e 34 a4 bd
       -0.031654716 -0.14405656 -0.09586453 -0.08017777
000370 88 67 86 3e 67 be 39 3d 0f 9b ac 3d 68 7e 4d 3d
       0.26250863 0.045347597 0.084280126 0.05016938
000380 e4 18 3c 3e e6 9b 25 be 4b 29 7c 3e 06 9f 22 bd
       0.1836887 -0.16172752 0.24625127 -0.039702438
000390 06 fd 4d be 5e e1 d6 bc 80 d8 52 3e 50 7d 05 be
       -0.20116052 -0.02623051 0.205904 -0.13036084
0003a0 e1 84 74 be be a4 8e be d1 e7 70 be 71 7c ed 3c
       -0.23878814 -0.27860063 -0.23525931 0.028990002
0003b0 bd d1 4d 3e d6 67 65 3d f9 5d 40 be 2c ca 08 3e
       0.2009954 0.05600723 -0.18785848 0.13358372
0003c0 a8 ec 45 3e 6c a7 65 be bb 22 a5 bd 04 cf 3b 3e
       0.19328558 -0.22427148 -0.08063265 0.18340689
0003d0 4a 1f 82 bd bf 78 60 be 85 b6 a5 bc 1b d8 d4 3d
       -0.06353624 -0.21921061 -0.020228634 0.10392781
0003e0 5d 37 4c bd 27 51 0f 3e ef 91 18 3d ce 48 67 3e
       -0.049857486 0.13995801 0.037248548 0.22586367
0003f0 30 0b 7c 3d 6b 88 32 be 05 a5 f7 bc 8a dc 35 3d
       0.061534107 -0.17434852 -0.030230055 0.044399776

linear1.bias f4 [256]
000000 d0 30 80 3e 16 5b 24 3d 84 61 fb bd ec 3c 18 be
       0.2503724 0.04012593 -0.12274459 -0.1486699
000010 54 21 3e bd e5 38 ae bd c1 8f 18 3d 58 5f 4a be
       -0.046418503 -0.085069455 0.03724647 -0.19762933
000020 0f bf 79 be a9 e1 58 3d ff f9 a0 bc 77 8a 13 3e
       -0.2438929 0.05294958 -0.019650457 0.14408289
000030 28 b7 bd bd 15 05 1c 3e 30 f4 dc 3d 36 4c 89 be
       -0.0926345 0.15236314 0.107887626 -0.26815957
000040 78 00 79 3e 1f 76 60 3e 0d cc 32 be 8a c8 25 be
       0.24316585 0.2192006 -0.17460652 -0.16189781
000050 4b 5b 6e be 1d d7 26 3e 13 78 52 be be 8e 0d be
       -0.23277013 0.16292997 -0.20553617 -0.13823983
000060 c6 d4 00 3e 97 01 0b 3e 8a 26 6e be 2e fe 38 3e
       0.12581167 0.13574825 -0.23256889 0.18065712
000070 3c e4 86 be 85 e0 c7 3d 5e 7d 10 be 6e 4d dc 3d
       -0.26346004 0.097596206 -0.14110324 0.10756956
000080 39 20 13 3e 3e ce e9 bd fe dc d0 bd 39 e1 94 be
       0.1436776 -0.11416291 -0.10198401 -0.2907808
000090 80 2b eb bd 1b 5d 7b be 78 e8 0c 3e 59 0a 09 3d
       -0.11482906 -0.24547236 0.13760555 0.033457134
0000a0 60 86 64 3e 13 d7 aa bc 34 21 23 3e a7 06 03 be
       0.22316885 -0.020854509 0.15930635 -0.12795506
0000b0 60 6e 35 be b2 b9 57 be cf 04 de 3d 7d bd f9 3d
       -0.17717886 -0.21066931 0.10840761 0.12194345
0000c0 f6 e7 3c 3d b4 77 19 3e e6 e6 15 3e 4a c6 89 3d
       0.046119653 0.1498707 0.14638862 0.06727274
0000d0 04 57 61 be 13 8a 5d be ad 5b ff bd 28 1d 0f 3d
       -0.2200585 -0.21634702 -0.12468658 0.034939915
0000e0 8b a5 06 be 94 02 3a be 4c ef 9b 3b 97 e2 7f be
       -0.13149087 -0.18165046 0.004758751 -0.24988781
0000f0 9b 5b b7 bd 8d 8d 15 bd 63 ee df bd c8 ff 68 bd
       -0.08953019 -0.036511946 -0.109341405 -0.056884557
000100 a4 c4 23 3c 6b 8b 4e 3e 95 c5 4a 3e 25 31 fe 3d
       0.009995613 0.20170371 0.19801934 0.12411717
000110 66 e8 0d be ed 9e 8d be 12 d8 09 3e be b7 24 3e
       -0.13858184 -0.27660313 0.1346133 0.16085717
000120 29 20 6f be 83 d3 1f 3d 1d 25 18 be c0 bd 30 3e
       -0.23352112 0.039020073 -0.14857908 0.17259884
000130 59 c8 89 be 66 91 91 3e 99 9d 6f bd 53 af 96 be
       -0.26910666 0.28431243 -0.058499906 -0.29430637
000140 d9 ab 87 3d 23 39 41 3e 34 ba 35 3e dd 2e 31 3d
       0.06624574 0.18869452 0.17746812 0.043257583
000150 a3 97 84 be 84 b8 76 3e 7c 54 d9 bd 4d 71 ae 3b
       -0.2589694 0.24093825 -0.10611817 0.005323565
000160 8f 73 53 3e 58 e0 53 be 68 f3 53 be 4f 52 28 bc
       0.20649551 -0.20691049 -0.20698321 -0.01027353
000170 ba d3 73 3e 24 4a 19 3e 09 5c c2 3b 7b a9 49 be
       0.23811236 0.14969689 0.0059313816 -0.19693558
000180 8b 13 4e 3e 78 ca 6c 3e 27 a1 18 be f7 d7 3f be
       0.20124643 0.2312411 -0.14905225 -0.18734728
000190 4a 7d 6c 3e be 14 47 3c bf eb 7f be 9b a6 30 be
       0.23094669 0.012150941 -0.24992274 -0.17251055
0001a0 1b f7 95 bc 84 4f cb 3b c7 9d 6a 3d 1e b5 9a be
       -0.018306306 0.0062045474 0.057279374 -0.30216306
0001b0 a7 db fb bd 2c 6c a2 bd 44 c6 8e 3d 23 52 5c 3d
       -0.12297755 -0.079307884 0.0697141 0.05378927
0001c0 e0 b0 7e 3e 25 15 1f bd f3 9b 60 be 27 d7 17 3e
       0.2487216 -0.038838524 -0.2193449 0.14828168
0001d0 f0 69 79 be ba 32 8d be 4f 47 40 be 87 b7 15 3e
       -0.24356818 -0.27577764 -0.18777202 0.14620791
0001e0 e3 f7 18 3e ef e5 35 3e cd 26 7c 3e 2f ea 8c bb
       0.14938311 0.17763494 0.24624176 -0.004300378
0001f0 a4 12 48 be ca 76 d8 3d 79 0b 01 be 3f ed 92 3e
       -0.19538361 0.10569532 -0.12602033 0.2869663
000200 53 d9 25 3e f8 03 4a 3e f3 69 7d 3e 84 2e 44 be
       0.16196184 0.19728076 0.24747448 -0.1915837
000210 50 ff 92 3c a1 a9 98 be 50 ef 92 bd cd a0 c1 3c
       0.017944008 -0.29816917 -0.071745515 0.023636246
000220 c6 02 19 3d 8c 6d 7b 3e 8b c2 79 be 7e 27 91 be
       0.03735616 0.24553508 -0.24390619 -0.28350443
000230 18 9d 21 be ee 2a d4 bd 1e 24 8b 3e 6a 9e 81 3e
       -0.15782583 -0.10359751 0.27175993 0.25316173
000240 d1 ce 45 3c e9 a3 92 3e 5c 5e c9 bd 75 45 c5 3c
       0.012073235 0.2864068 -0.09832451 0.024080971
000250 5d ec 52 bc 94 44 5f be c0 70 0a 3e 53 37 75 be
       -0.012873736 -0.21803504 0.13519573 -0.23946886
000260 2f 5c 50 3e 70 2b 85 3d 47 94 08 be 43 ce 76 3d
       0.20347665 0.06502426 -0.13337813 0.0602553
000270 e6 2f c7 3b 0d 61 1c 3e 50 f0 67 bd 8e 72 2d be
       0.006078708 0.15271397 -0.056625664 -0.1693823
000280 15 b5 74 be 04 f9 0a be 37 11 00 3c 3d 1f c8 bc
       -0.23897202 -0.13571554 0.007816604 -0.024428958
000290 5d 90 97 3d da 40 a6 3d 32 28 3d 3e 85 25 85 3c
       0.07400582 0.08117838 0.18472365 0.016253242
0002a0 ce 7a 05 3d 69 8d 45 3e 08 39 f6 3d 60 55 92 be
       0.03258782 0.19292225 0.120225966 -0.2858076
0002b0 19 4b 9e bc 51 f9 92 3e 07 45 36 3e 68 4d 54 be
       -0.019322919 0.28705838 0.1779977 -0.20732653
0002c0 6e 0f 7a be bb 08 2a bd 18 29 65 3e 1a cd 78 3e
       -0.24419948 -0.041512232 0.22378957 0.2429699
0002d0 55 f4 6f bd af ea 61 bd 5a de a0 be 89 bd 93 3e
       -0.058582623 -0.055155452 -0.3141964 0.2885554
0002e0 16 dc 40 3e 14 03 b6 3d 44 4b e7 bd 74 66 cf 3d
       0.18833956 0.08887306 -0.11293653 0.10126963
0002f0 b1 f2 9f 3c dd b8 88 be 35 fe 04 3e 67 1a b4 3e
       0.019524904 -0.2670354 0.12987597 0.35176393
000300 30 08 88 bc 34 1e 7a be 5a 97 1e 3d e6 4c 32 be
       -0.016605467 -0.24425584 0.03871856 -0.17412147
000310 8d 84 12 bc ee 60 50 bc 7f c2 7b 3e 4c cc 0c bd
       -0.008942735 -0.012718422 0.24585913 -0.03437452
000320 79 08 0a 3e 48 e9 f0 bc 6d 24 f5 3d a7 0c 35 3e
       0.13479795 -0.029408112 0.11969838 0.17680608
000330 55 2b 30 3d b1 ab 11 be 95 c8 5b 3c 91 1b 39 3e
       0.043010075 -0.14225651 0.013414522 0.18076922
000340 e8 c0 45 be 18 53 f3 3d ca 07 3d 3e cc 65 88 be
       -0.19311869 0.11881083 0.18460003 -0.26640165
000350 ba 9c 6f be b7 5e 4c be c9 7a 8d bc 03 f9 3f 3e
       -0.2339963 -0.19958006 -0.017270463 0.18747334
000360 18 b8 ec bd 6a ea 05 bc a0 04 15 bc f7 ac 0d 3e
       -0.115585506 -0.008173564 -0.009095341 0.13835512
000370 40 aa fd 3c c5 4a 87 be 6a ef e9 bd 31 c3 05 3e
       0.03096497 -0.26424232 -0.11422618 0.13062741
000380 c5 b5 8c be c7 e5 a9 be c2 14 9f be cc d9 3b 3d
       -0.2748243 -0.3318312 -0.31070524 0.045862004
000390 79 c3 b0 bd 91 c9 46 be a7 69 f2 bc fe f7 1c 3c
       -0.086310335 -0.19412829 -0.029591395 0.00958061
0003a0 78 92 56 bd a7 d4 43 be 2b 7d fd 3c 07 4f 68 be
       -0.052385777 -0.19124089 0.030943474 -0.22686397
0003b0 48 7c 82 be bd eb 80 be 38 24 28 be 58 b5 10 be
       -0.25485444 -0.25179854 -0.16420066 -0.14131677
0003c0 36 12 b4 bb 4b f0 a4 3d f0 29 f3 3d ef 42 92 3e
       -0.005495335 0.08053645 0.11873233 0.2856669
0003d0 a3 21 97 3e 19 ca b6 bd 49 b0 15 3e b3 c7 7c 3e
       0.2951785 -0.08925266 0.14618029 0.24685554
0003e0 07 49 51 3e be 1a 22 3e 89 d1 8b 3e 1e ae 94 be
       0.20438014 0.15830514 0.273083 -0.2903909
0003f0 b4 78 b6 3d 6c 3b 70 be 3d 45 f3 bd 80 9d 51 be
       0.08909741 -0.23460168 -0.118784405 -0.20470238

linear2.weight f4 [3, 256]
000000 02 9c 05 3c 3b 3e 1d 3d 1b 82 f2 3c 1f 71 33 3d
       0.008154871 0.038389426 0.029603055 0.043809053
000010 aa 29 c6 3b 5d 6d 01 3d 40 3f 24 bd 01 33 a4 3c
       0.006047447 0.031598438 -0.040099382 0.020043852
000020 be b5 5c bd f8 27 7d bd 47 b0 7f 3b ca 56 1e 3d
       -0.05388426 -0.061805695 0.0039014982 0.038656987
000030 1f 80 1f 3d fe 4a 09 bc 8f 27 0b 3d 8c 90 a6 3c
       0.038940545 -0.008379696 0.033973273 0.020332597
000040 54 88 2f bd d2 42 21 bb 62 84 61 bb d5 63 4e 3c
       -0.042854622 -0.0024606478 -0.0034411182 0.012597044
000050 db f7 a6 bd 9b 1f 0f ba a2 17 23 bc 93 e4 26 3d
       -0.081527434 -0.00054597267 -0.009954365 0.04074533
000060 12 89 59 bd d6 b1 36 bc d2 b7 76 bd 5d 8c 0f bd
       -0.053109236 -0.011150798 -0.0602339 -0.03504597
000070 15 7d 0f 3d 52 ad 53 bb b7 f2 32 3d 5a ec 09 bd
       0.035031397 -0.0032299352 0.043688502 -0.033672668
000080 52 0f 05 3d 88 11 13 3d 19 50 95 3a c3 3e fb bc
       0.032485314 0.03590539 0.0011391669 -0.030669576
000090 6b 0c 79 3d c6 d6 d5 bb 9a 3c 24 3d 00 2b 14 3d
       0.06080286 -0.006525847 0.040096857 0.03617382
0000a0 47 e9 17 bd d6 56 cd bc 4e 21 8b bd e0 e9 95 bd
       -0.037087705 -0.02506582 -0.06793462 -0.07319999
0000b0 51 b4 5a bd 70 dc b3 3c b9 df 09 3d 3d fd 44 3d
       -0.05339462 0.021955699 0.033660624 0.04809307
0000c0 50 6c 54 3d 36 28 08 3d ae 7b 56 3c 44 bd 46 bd
       0.051861107 0.033241473 0.013091011 -0.04852034
0000d0 e8 70 c5 3d 9d ac 1e bb 47 89 12 3d 1a 2b 44 3c
       0.09640676 -0.0024211772 0.03577545 0.011973167
0000e0 73 53 88 bd 3e f4 fe bc 6c fc 66 3d 87 24 4f bd
       -0.06656542 -0.031122323 0.056393072 -0.050571945
0000f0 cf 7d 66 3c 70 ac 95 bd 69 3a 87 bb e6 1d af 3b
       0.014068081 -0.073082805 -0.004126836 0.0053441403
000100 97 e5 07 3d cb cc 71 bd c5 02 dc 3c 33 c9 60 bc
       0.03317794 -0.059033196 0.02685679 -0.013719845
000110 ec 29 ba bc d0 20 d7 b8 04 5c f6 3c d9 1a 65 bd
       -0.022725068 -0.00010258111 0.030073173 -0.055933807
000120 03 d9 89 bc bc 15 15 3d a6 f3 0b 3d 67 7e 75 bb
       -0.016827112 0.03639768 0.034167908 -0.0037459375
000130 0a d8 4c bd 33 25 9a bc 3d d2 a4 3d d8 85 25 bc
       -0.05001072 -0.018816566 0.08047912 -0.010102712
000140 21 50 b6 3c 26 fc 52 bb 5c 5b 3c 3d 6e 12 b7 3b
       0.022255005 -0.003219375 0.045985565 0.005586914
000150 9a 7b 15 bd 2a 39 58 3d 08 66 4c bd 94 95 8d bd
       -0.03649483 0.05278889 -0.049901992 -0.069132954
000160 62 27 af bc b5 dc 38 3d be 39 26 bc 2e c6 fb 3c
       -0.021381084 0.045132358 -0.010145603 0.030734148
000170 77 a8 d3 3c e1 36 f0 3c b2 d8 33 bc c2 25 73 3d
       0.025837166 0.029323043 -0.010976957 0.05936218
000180 18 98 24 bd 78 8f 99 bd 50 50 86 3b 74 2d 5f bc
       -0.04018411 -0.074980676 0.0040989295 -0.013621677
000190 92 86 5c 3d d7 2e 87 bd 6a 20 4b bd 55 8a 9b bb
       0.053839274 -0.06600731 -0.04959146 -0.004746715
0001a0 c6 8d 74 bd 82 aa 44 3d 7a 87 fb 3c ba f1 e0 bc
       -0.05970552 0.04801417 0.030704249 -0.027459014
0001b0 b0 e5 c0 3c 24 27 b1 bd 86 f7 af 3c ea 5b dd 3c
       0.023547024 -0.086500436 0.021480333 0.027021367
0001c0 0b be ca ba 98 9d 00 3c 31 49 3c bd a0 b3 da 3c
       -0.0015468014 0.007850073 -0.04596824 0.02669698
0001d0 e2 3d 0e bd b7 87 5a 3d c8 a9 06 3a 34 7d f9 bc
       -0.034726985 0.053352084 0.0005136994 -0.03045521
0001e0 9d 6b 28 bd 57 97 a0 3d 8f 1f bd bc 25 b9 8d bc
       -0.041118253 0.07841366 -0.023086337 -0.017300198
0001f0 9d a7 0b 3d 01 01 59 3d 21 d6 dd 3c ab 54 74 bd
       0.034095395 0.052979473 0.027079644 -0.05965106
000200 0b a8 13 bd c6 e7 09 bd 03 cc 93 bd 19 2d 8f bb
       -0.03604893 -0.033668302 -0.072166465 -0.0043693897
000210 b3 5e 8e 3b fc d4 ad bb 21 15 0f 3d 94 41 3b bd
       0.004344785 -0.0053049307 0.03493226 -0.045716837
000220 6b b1 67 bb 2e 18 10 bd f0 4e 05 bc 50 83 69 3c
       -0.0035353552 -0.03517931 -0.008136496 0.014252499
000230 5f 5b e4 3d 66 4c 1e bb 40 8f a5 3d 5d 55 13 bc
       0.1115024 -0.0024154424 0.080839634 -0.00899252
000240 16 0f c9 bc 7f ca 16 3d be d3 02 bc de 13 91 3c
       -0.024543326 0.03681421 -0.007985054 0.017709669
000250 3c 8f 2f 3c 16 f8 4b bd 63 45 a3 bd b7 a7 0c bd
       0.010715302 -0.04979714 -0.07972219 -0.034339633
000260 ff e1 9a 3d e3 d3 06 bd b0 dc 9f 3b 1e fb 2c 3d
       0.075626366 -0.032916915 0.004878603 0.04223167
000270 1a 50 15 bd 65 8f 90 bb 05 f4 71 3d 87 2e 79 bc
       -0.036453344 -0.004411625 0.059070606 -0.015208847
000280 c6 ec dd 3c e8 39 16 3c c8 4e 24 bb 94 3c ab 3d
       0.027090441 0.009169079 -0.0025071371 0.08361164
000290 92 f9 03 3d 00 67 e3 b9 2b 7f 83 bc 61 46 5f 3d
       0.03222043 -0.00043373555 -0.01605185 0.054510478
0002a0 57 cc 16 bd 06 b8 95 bd 05 ce db 3c 5d 61 c9 3a
       -0.036815967 -0.0731049 0.026831636 0.00153641
0002b0 36 7b 56 bd 8c 5c cf bc 6e 31 c2 3c 3f ef a0 bd
       -0.052363597 -0.025312684 0.02370521 -0.078581326
0002c0 b4 46 36 3d a8 7a ea 3c 5a 6a 63 3c 86 7a 18 bd
       0.04450102 0.02862294 0.013880337 -0.037226222
0002d0 47 ea 81 bd 15 0e da 3b e1 2b 6e bc 4c 1e 1a bd
       -0.06343513 0.0066545107 -0.014536829 -0.03762655
0002e0 f0 86 f0 3c ed 1a 75 bd 54 b3 88 3c 3e 0b 5b bd
       0.029361218 -0.05984013 0.016687073 -0.05347752
0002f0 83 09 ae 3b 74 d8 c1 bc cc 76 2d 3d 73 df d4 3d
       0.0053111925 -0.023662783 0.04234962 0.10394182
000300 4b 5f 4c bd d7 97 05 3d 1f d6 89 bc b4 d6 5a 3d
       -0.049895566 0.03261551 -0.016825734 0.053427413
000310 cf 78 93 3c b3 f2 33 3d 46 ff f2 bc 18 16 4b 3d
       0.018001942 0.043932628 -0.02966274 0.049581617
000320 6f 62 99 bd 18 de 1b 3d e9 be 21 bb a9 2b 3e bc
       -0.07489478 0.038053602 -0.0024680442 -0.011607089
000330 ff 98 5f bd 26 95 0b 3d 1a 72 c0 3c 35 ca 31 3c
       -0.054589268 0.034077786 0.023491908 0.010851433
000340 cd 1c 18 3d 35 05 64 3d 80 7d 19 3c 8d 6a cd bb
       0.03713684 0.05566903 0.0093683 -0.0062688054
000350 4c c8 6a bc 72 97 1e bd 5e 0d fe bc 73 c0 8f bc
       -0.014329981 -0.03871865 -0.031012233 -0.017547822
000360 3a 1c 7e 3d 90 d1 61 bd d8 6c 68 bc 0a e3 87 3a
       0.062038638 -0.055131495 -0.014186107 0.0010367346
000370 5b 39 9b bd c0 32 99 bc c0 a2 d6 bb 3b 18 4d 3d
       -0.07579299 -0.018700957 -0.006550163 0.050071936
000380 62 11 8c 3c 5b 7f af 3c 56 86 80 bc f4 4e 66 3d
       0.017098133 0.021423033 -0.015689056 0.05622764
000390 6d 53 ba 3c 52 27 49 bd 4b 4f e8 3a 39 22 21 bd
       0.022744859 -0.049109764 0.0017723826 -0.039339278
0003a0 02 b6 f5 bc 63 85 8b 3b 16 75 81 bd 59 26 87 bc
       -0.029994015 0.0042578443 -0.063211605 -0.016497778
0003b0 84 54 e8 bc f4 3f 92 bd 24 d5 17 3c 88 8e c9 3c
       -0.028360613 -0.07141104 0.009267125 0.024604097
0003c0 55 ae bd bc 59 8d 89 bc 81 d9 e9 3c 7d bf 18 bd
       -0.023154417 -0.016791033 0.028546097 -0.037291992
0003d0 69 4d 68 bc d7 f9 a7 3d 70 a1 99 bd ff 4f e2 3c
       -0.014178612 0.0820195 -0.07501495 0.027626036
0003e0 13 78 08 bd a2 1f a0 bc 38 d5 36 bd d0 e3 cb bb
       -0.033317637 -0.019546334 -0.044636935 -0.0062222257
0003f0 1d e0 9f bc e1 9d 44 3c 3e 44 09 3d ba 63 69 3d
       -0.019516045 0.012000532 0.033512346 0.056979872

linear2.bias f4 [3]
000000 8c e1 60 bd a0 9d 1c bc 01 36 2c 3d
       -0.0549026 -0.009559065 0.04204369
