model/model.pth (torch, 17111 bytes, 4 tensors)

linear1.weight f4 [256, 11]
0.06379725 0.28011423 0.17127942 0.1458649 0.28612447 0.17597306 0.23032057 -0.1410328
0.18776095 0.25126424 -0.252668 -0.11536726 0.1350271 0.2141342 0.043078363 0.1614786
0.10692683 0.061297774 0.21541817 -0.018260663 0.39490196 -0.07129593 0.24161352 -0.15856624
-0.042085033 -0.033042043 -0.16267337 0.16081762 -0.007923305 0.29274774 0.15340719 0.36667746
-0.2637159 0.28449932 0.022680696 -0.22437449 -0.2777355 0.27953503 -0.021950036 0.19498518
-0.08298049 0.12476247 0.14890042 -0.29429784 0.1769591 0.23721734 -0.073494256 0.29394776
-0.093117 -0.013925463 -0.26812074 0.15420529 0.31812772 0.36644608 0.09423128 -0.12172401
0.2925563 0.07968685 0.031250894 -0.074917555 -0.23501714 0.27091634 -0.24849643 -0.15410459
-0.18537349 0.1363424 0.110924095 -0.01771348 -0.10159859 -0.012085468 0.19819996 -0.24816927
-0.26872656 -0.08990219 0.16906102 0.24725337 0.21373057 -0.16023275 0.054846227 -0.07696669
0.15347481 -0.22880709 -0.018745571 0.031915247 -0.116556525 -0.16816281 -0.17761901 0.022024155
0.18448454 0.16489272 0.024222247 -0.05525683 0.17465886 0.18341398 0.23457211 0.26832843
-0.064734556 0.13412368 0.15906066 0.08426623 0.166228 0.14541532 -0.15742025 -0.06321316
-0.14945845 -0.08543269 0.19576931 -0.023498079 0.4244157 0.27474874 -0.08091855 -0.08844361
-0.017385513 0.041962177 -0.03768012 0.11188945 -0.2959326 -0.12790918 0.07152915 -0.10670395
-0.23357108 -0.23503357 -0.25891617 0.24944144 0.10763365 -0.20201713 0.09399122 -0.040707648
-0.177073 -0.21642388 -0.12186472 -0.024273455 -0.037163656 0.20161021 0.15702872 -0.2562896
0.01506051 0.19846553 -0.10475239 0.2135098 0.29921806 0.17264757 -0.060283735 0.29632962
-0.16330339 -0.13019407 -0.10152845 -0.09129566 -0.25165674 -0.2187238 0.072382785 -0.29094312
-0.17435515 0.10234392 -0.021777818 0.29731247 0.36216953 -0.030174226 0.22785453 0.07468346
-0.026581436 -0.070027195 0.21423788 0.08719648 -0.0446285 0.28513232 0.21771866 -0.011299846
0.30047405 0.012135221 0.013197929 -0.062035277 0.07282602 0.053310864 -0.06781518 0.20638824
0.29611796 0.099884786 0.3039211 -0.12860975 0.106377125 0.20038575 0.21502185 0.27846465
0.05278918 0.41784164 0.15294582 -0.0356898 -0.2770717 -0.14919032 0.16401869 -0.10811974
-0.229405 0.023432463 0.010251999 0.04003352 -0.1804571 0.29381716 -0.07761564 -0.19937673
0.16322775 -0.28992492 0.47367427 0.20684606 0.2381199 0.37790495 0.14198953 0.033054687
0.20429027 0.17855531 0.33491245 -0.19089665 -0.04600951 0.41493228 -0.07367422 0.0056191087
0.32204276 -0.18559225 0.42032254 -0.1671752 0.35405636 0.15104303 -0.2604452 0.05700907
0.14575325 -0.19108999 0.21842581 -0.027685104 0.20407471 0.023684036 -0.24966913 0.16134778
0.120960236 -0.13197236 0.16957217 -0.08643773 -0.03501135 0.13682985 0.15253955 -0.23465551
-0.098342046 0.2698844 -0.05826171 -0.060481753 -0.096206404 0.072208375 -0.06219211 -0.28110686
-0.2961204 -0.0025815084 0.25116393 0.33985716 -0.2981884 0.14873683 0.24059892 -0.02904657
00000000: 22a8 823d 226b 8f3e df63 2f3e 9c5d 153e
00000010: e87e 923e 4832 343e 28d9 6b3e e76a 10be
00000020: 6844 403e b5a5 803e b35d 81be ac45 ecbd
00000030: 8b44 0a3e ff45 5b3e f072 303d a55a 253e
00000040: 74fc da3d 6013 7b3d 9596 5c3e 6397 95bc
00000050: 9730 ca3e 9a03 92bd 8969 773e 305f 22be
00000060: 5b61 2cbd 1857 07bd d993 26be 60ad 243e
00000070: c0d0 01bc 08e3 953e c616 1d3e 26bd bb3e
00000080: c505 87be e5a9 913e decc b93c 6dc2 65be
00000090: 5933 8ebe 371f 8f3e 90d0 b3bc 32aa 473e
000000a0: adf1 a9bd 7783 ff3d 5a79 183e 35ae 96be
000000b0: c434 353e 1ae9 723e 2884 96bd 5280 963e
000000c0: 20b4 bebd a027 64bc 1f47 89be fee7 1d3e
000000d0: a3e1 a23e d29e bb3e 54fc c03d 704a f9bd
000000e0: f0c9 953e dc32 a33d f000 003d 606e 99bd
000000f0: 55a8 70be 8cb5 8a3e d975 7ebe 98cd 1dbe
00000100: 8cd2 3dbe 589d 0b3e 2c2c e33d dc1b 91bc
00000110: ec12 d0bd 2002 46bc eef4 4a3e 1620 7ebe
00000120: 8796 89be a41e b8bd 551e 2d3e fd2f 7d3e
00000130: 30dc 5a3e 0e14 24be 70a6 603d b6a0 9dbd
00000140: 8028 1d3e 684c 6abe 5090 99bc 90b9 023d
00000150: 30b5 eebd df32 2cbe c2e1 35be 006c b43c
00000160: 84e9 3c3e a3d9 283e bc6d c63c fc54 62bd
00000170: c6d9 323e e0d0 3b3e ac33 703e 5862 893e
00000180: 8d93 84bd b857 093e cce0 223e c693 ac3d
00000190: ac37 2a3e c1e7 143e c632 21be e775 81bd
000001a0: a30b 19be 56f7 aebd c077 483e 0b7f c0bc
000001b0: 044d d93e deab 8c3e a0b8 a5bd ec21 b5bd
000001c0: 106c 8ebc 88e0 2b3d 7856 1abd 4c26 e53d
000001d0: 7a84 97be a0fa 02be e07d 923d 9a87 dabd
000001e0: 422d 6fbe a4ac 70be a990 84be 946d 7f3e
000001f0: 086f dc3d 94dd 4ebe 787e c03d 10bd 26bd
00000200: a052 35be 399e 5dbe 3694 f9bd 20d9 c6bc
00000210: eb38 18bd e872 4e3e 23cc 203e 6438 83be
00000220: 5bc0 763c 8c3a 4b3e 6c88 d6bd 50a2 5a3e
00000230: 1c33 993e 86ca 303e 14ec 76bd 84b8 973e
00000240: 0139 27be 9851 05be 26ee cfbd 38f9 babd
00000250: 27d9 80be 22f9 5fbe 6d3d 943d 7ff6 94be
00000260: 288a 32be b099 d13d 6567 b2bc 5739 983e
00000270: 496e b93e f02f f7bc b352 693e a4f3 983d
00000280: 50c1 d9bc 6b6a 8fbd 2d61 5b3e 1194 b23d
00000290: 60cc 36bd ddfc 913e a4f1 5e3e fd22 39bc
000002a0: bcd7 993e ced2 463c 203c 583c b418 7ebd
000002b0: cf25 953d 7e5c 5a3d afe2 8abd 7057 533e
000002c0: c69c 973e 6590 cc3d 8c9b 9b3e 46b2 03be
000002d0: 40dc d93d ec31 4d3e b02e 5c3e eb92 8e3e
000002e0: 7839 583d 57ef d53e d49d 1c3e 782f 12bd
000002f0: 58dc 8dbe 59c5 18be 84f4 273e e26d ddbd
00000300: 25e9 6abe 70f5 bf3c 00f8 273c 30fa 233d
00000310: bfc9 38be 346f 963e f3f4 9ebd 6a29 4cbe
00000320: 2d25 273e 0a71 94be 6f85 f23e 74cf 533e
00000330: b4d5 733e c27c c13e b465 113e 5a64 073d
00000340: 7831 513e 34d7 363e a579 ab3e 697a 43be
00000350: 7874 3cbd 0172 d43e 82e2 96bd 8020 b83b
00000360: cae2 a43e e50b 3ebe 8434 d73e fa2f 2bbe
00000370: e046 b53e 06ab 1a3e 1359 85be 5882 693d
00000380: 5740 153e 18ad 43be 04ab 5f3e dfcb e2bc
00000390: f6f8 503e 0605 c23c 44a9 7fbe 5a38 253e
000003a0: 00ba f73d c323 07be 54a4 2d3e 4406 b1bd
000003b0: 1068 0fbd 201d 0c3e 5433 1c3e 8949 70be
000003c0: 8e67 c9bd 4a2e 8a3e d5a3 6ebd b7bb 77bd
000003d0: dd07 c5bd fce1 933d 27bd 7ebd 3ded 8fbe
000003e0: 189d 97be 862e 29bb 8f98 803e c201 ae3e
000003f0: 26ac 98be 784e 183e 905f 763e 13f3 edbc

linear1.bias f4 [256]
0.11860149 0.2750738 0.21514568 0.035134934 0.11513144 0.037519366 0.23611334 -0.2561068
0.085398026 0.34166127 -0.21307077 -0.2186996 -0.031441167 0.13929966 0.3627884 0.28551114
0.32275695 -0.10016438 0.33813486 0.3303795 0.36191538 -0.2556818 0.04953798 0.39481977
0.13701114 0.2725783 0.33223504 -0.11377519 0.2702962 0.22140615 -0.0005735475 -0.33013964
0.21252437 0.41375667 0.23084302 -0.21892925 0.31090042 0.03726007 -0.23519497 -0.21495959
-0.09182335 0.17282762 -0.04118439 0.3087872 0.27646786 -0.24902162 0.061749484 -0.2490938
-0.0477986 -0.18866111 -0.2947791 0.0014372056 -0.029081458 -0.2325463 -0.2140471 0.2711454
-0.0015495903 -0.096911676 -0.06930893 0.18037741 -0.27659655 -0.16758266 0.06488106 0.1687403
0.24210635 -0.20337062 -0.09099336 0.1012929 0.22872204 0.020091727 0.39205268 -0.24615811
0.28590593 0.029190617 0.37455177 0.23885642 0.018411135 -0.108029336 -0.13415812 -0.11432727
0.22073163 -0.19393605 -0.06892131 0.124636315 0.1668595 -0.095329106 -0.2543343 0.1561401
0.023547592 0.12881282 0.12638545 0.31333184 -0.30263013 0.081161395 -0.11327823 0.24104506
-0.22625235 0.18658802 -0.054986164 0.27017346 0.41085294 -0.23201169 0.26027498 -0.031213522
-0.05116372 -0.11869736 0.07183906 0.027774738 -0.091190696 -0.19848931 0.014299214 0.11964855
0.13416955 -0.22946739 -0.0761079 -0.3036757 0.3473898 -0.27350324 0.1266841 -0.12844792
-0.1813256 -0.23732305 0.4039995 0.22312121 0.30759084 0.13937241 0.18594015 -0.07683394
0.010645501 0.21770129 0.23850828 0.3327007 0.21044594 -0.25646135 0.28126973 0.21620457
0.3081704 -0.1718802 0.23448627 -0.011859438 -0.055919006 0.35238796 -0.1433194 0.34428367
-0.2126706 -0.29487693 -0.008909661 -0.037127048 0.061801344 0.019876441 0.119057804 0.23909472
-0.049574398 -0.040146127 0.28523508 0.14007689 -0.18235323 -0.089666456 -0.012557039 -0.22945267
0.2225588 0.009398837 -0.13002557 0.041071147 -0.072270155 -0.070455514 -0.042713378 0.099128924
-0.030810833 -0.011869192 0.26615256 -0.12915525 0.3817843 0.07669979 0.21971364 -0.16474323
-0.07060249 0.33359873 0.06647829 -0.08433663 0.39300177 0.4058169 0.15239218 0.36473212
-0.19466229 -0.30176592 0.3045249 0.14832987 0.10992021 0.16652095 -0.012396454 0.2622451
-0.020253876 0.0889629 0.19503772 0.08175406 0.15845706 0.17779987 0.21176884 0.24526587
-0.24866672 -0.10371364 -0.2510746 0.078777514 0.37513912 0.3491107 -0.121152356 0.022064837
0.29184377 0.29013565 -0.18847622 0.28893787 0.17957658 -0.097436965 -0.15185437 0.33484283
-0.022251256 -0.11916738 -0.094519265 -0.1750278 -0.2377899 -0.16181165 -0.22955696 0.06729445
-0.25203052 0.3536935 0.24164115 0.22204578 -0.13904616 -0.21151055 0.4432958 -0.09375985
-0.17043583 0.023039192 0.025856307 0.009788929 -0.18257695 0.09212169 -0.11986714 0.17817426
0.2163496 0.21406652 0.35229543 0.22935562 -0.06631661 0.010733187 -0.017693788 0.15768048
0.19618191 0.42782092 -0.2479557 0.2883097 0.22181188 0.13780473 -0.099445924 -0.26285803
00000000: 57e5 f23d 79d6 8c3e 264f 5c3e a6e9 0f3d
00000010: 08ca eb3d e8ad 193d b2c7 713e 6e20 83be
00000020: 29e5 ae3d 3aee ae3e 392f 5abe caf2 5fbe
00000030: 74c8 00bd 92a4 0e3e 67bf b93e 842e 923e
00000040: 6640 a53e fc22 cdbd 0320 ad3e 8027 a93e
00000050: f94c b93e bae8 82be 56e8 4a3d d125 ca3e
00000060: a64c 0c3e 628f 8b3e b61a aa3e f802 e9bd
00000070: 4364 8a3e 4bb8 623e 1f5a 16ba 1008 a9be
00000080: fd9f 593e ead7 d33e 1d62 6c3e fd2e 60be
00000090: 572e 9f3e 049e 183d f3d6 70be 5e1e 5cbe
000000a0: e10d bcbd b9f9 303e f7b0 28bd 5b19 9e3e
000000b0: 328d 8d3e 86ff 7ebe 07ed 7c3d 7212 7fbe
000000c0: 77c8 43bd 6130 41be 49ed 96be 9e60 bc3a
000000d0: 3d3c eebc 9e20 6ebe 2a2f 5bbe 92d3 8a3e
000000e0: 9f1b cbba a179 c6bd d7f1 8dbd dbb4 383e
000000f0: 109e 8dbe ca9a 2bbe 5ce0 843d 42ca 2c3e
00000100: baea 773e 6340 50be ba5a babd a772 cf3d
00000110: 1c36 6a3e 6897 a43c 21bb c83e df10 7cbe
00000120: 4362 923e 2921 ef3c 40c5 bf3e c796 743e
00000130: f3d2 963c 7c3e ddbd bf60 09be 6a24 eabd
00000140: 7907 623e 2c97 46be 9e26 8dbd 5341 ff3d
00000150: 37dd 2a3e e83b c3bd 1b38 82be 31e3 1f3e
00000160: e1e6 c03c 82e7 033e 306b 013e 086d a03e
00000170: 56f2 9abe f237 a63d 6bfe e7bd 84d4 763e
00000180: b2ae 67be ee10 3f3e 2c39 61bd 2d54 8a3e
00000190: 515b d23e 7994 6dbe c342 853e 80b3 ffbc
000001a0: 0d91 51bd 9a17 f3bd 5b20 933d d987 e33c
000001b0: 30c2 babd c840 4bbe 4047 6a3c 4d0a f53d
000001c0: be63 093e 80f9 6abe 75de 9bbd 627b 9bbe
000001d0: 13dd b13e 9e08 8cbe 7ab9 013e da87 03be
000001e0: 6bad 39be d004 73be 06d9 ce3e e379 643e
000001f0: 8c7c 9d3e a4b7 0e3e 1867 3e3e 1d5b 9dbd
00000200: 786a 2e3c 16ed 5e3e 843b 743e bf57 aa3e
00000210: 247f 573e e74e 83be 9602 903e bb64 5d3e
00000220: 83c8 9d3e 5d01 30be 2b1d 703e 174e 42bc
00000230: 540b 65bd 326c b43e 52c2 12be f345 b03e
00000240: 52c6 59be 1cfa 96be d4f9 11bc 8812 18bd
00000250: 6823 7d3d ebd3 a23c 94d4 f33d 3fd5 743e
00000260: 860e 4bbd 4470 24bd 550a 923e 5170 0f3e
00000270: ceba 3abe 0ca3 b7bd 0abc 4dbc a4f5 6abe
00000280: 74e6 633e 94fd 193c 6c25 05be 383a 283d
00000290: 6002 94bd fb4a 90bd 39f4 2ebd 1b04 cb3d
000002a0: 0067 fcbc 0077 42bc 2645 883e 4641 04be
000002b0: 3b79 c33e c814 9d3d 9dfc 603e 73b2 28be
000002c0: 0a98 90bd 74cd aa3e c525 883d afb8 acbd
000002d0: 8737 c93e 3cc7 cf3e b20c 1c3e 2bbe ba3e
000002e0: 8d55 47be 1081 9abe b0ea 9b3e c9e3 173e
000002f0: d91d e13d 7884 2a3e 7f1a 4bbc fd44 863e
00000300: 75eb a5bc 2e32 b63d f8b7 473e ac6e a73d
00000310: 9142 223e 2b11 363e eed9 583e fa26 7b3e
00000320: 7da2 7ebe d167 d4bd da8c 80be 1b56 a13d
00000330: 3c12 c03e a3be b23e ba1e f8bd 51c1 b43c
00000340: 8c6c 953e a98c 943e e9ff 40be aaef 933e
00000350: ece2 373e 088d c7bd b67f 1bbe 8570 ab3e
00000360: 4448 b6bc 070e f4bd 5193 c1bd 7d3a 33be
00000370: 327f 73be f4b1 25be fb10 6bbe acd1 893d
00000380: 250a 81be 5017 b53e c770 773e f85f 633e
00000390: 1e62 0ebe 3996 58be abf7 e23e 2a05 c0bd
000003a0: bb86 2ebe b0bc bc3c 9bd0 d33c be61 203c
000003b0: 74f5 3abe 4caa bc3d e77c f5bd 5073 363e
000003c0: c08a 5d3e 4134 5b3e 1160 b43e 33dc 6a3e
000003d0: 01d1 87bd 40da 2f3c 90f2 90bc fe76 213e
000003e0: e9e3 483e 580b db3e 19e8 7dbe 549d 933e
000003f0: a722 633e af1c 0d3e 4eaa cbbd 5495 86be

linear2.weight f4 [3, 256]
-0.015408859 -0.04229914 -0.0799053 -0.110728964 -0.09798946 -0.039806746 -0.018837383 0.043903977
-0.050319515 -0.14126103 0.023898259 -0.01845099 -0.1403949 -0.11352181 -0.12754573 -0.12557189
-0.116960466 0.025812872 -0.12848024 -0.08862047 -0.12146785 0.04412841 -0.09280363 -0.04154939
-0.07836394 -0.114419356 0.0032732661 0.025697649 -0.06757079 -0.07920738 -0.049674883 -0.050883338
-0.072360106 -0.016466057 -0.030774774 -0.061978213 -0.14013554 -0.1072247 -0.07764989 0.00050103664
-0.020300386 -0.1509998 -0.10117012 -0.14290574 -0.04676184 0.02880226 -0.1006949 -0.039197743
-0.018086556 -0.047319442 0.031149812 -0.075042054 0.008906155 0.013594978 -0.07081533 -0.16258472
-0.12827873 0.023212451 -0.07810136 -0.12169449 0.0034544915 -0.047980234 -0.109057106 -0.06401114
-0.11791675 -0.07195178 0.02728449 -0.033847496 -0.051386036 -0.077144556 -0.08943005 0.024476454
-0.05225269 -0.019488217 -0.122181244 -0.09664858 -0.049156465 -0.13766482 -0.030652031 0.004602191
-0.14025447 -0.07727747 -0.018463133 -0.025103502 -0.106133126 -0.11818739 0.035087235 -0.033696752
-0.11822351 -0.04875217 -0.098743714 -0.14286761 -0.023477325 0.0047603343 -0.12797801 -0.0351995
-0.02463793 -0.124665886 -0.10331746 -0.05639631 -0.07519921 -0.091119505 -0.0741622 0.016969368
-0.057418134 -0.02306106 -0.15954383 -0.071594514 -0.024061715 0.02259653 0.0169672 -0.1299786
-0.131038 -0.025589816 -0.036102965 -0.007535547 -0.13850339 -0.087243594 0.054343604 -0.07271059
-0.02076738 -0.01680176 -0.13756576 -0.055196274 -0.019475956 -0.11770448 -0.0639868 -0.09466667
-0.15435372 -0.10425597 -0.12916636 -0.04248644 0.052840814 -0.067323394 -0.12172593 -0.08602919
-0.059552234 -0.009183846 -0.09576707 -0.10446684 -0.11796585 -0.03583373 -0.036456894 -0.05571697
-0.05395052 -0.058130927 -0.047596112 -0.011323288 -0.006521021 -0.08043707 -0.11377803 -0.091645926
-0.11142981 -0.1514778 -0.13403451 -0.0870598 0.021642335 -0.04592056 -0.1097211 -0.03360062
-0.04517323 -0.09640377 -0.018603364 -0.057874326 -0.071421996 -0.036152877 -0.061235107 -0.022897586
0.040033333 -0.031199247 -0.12594016 0.032505363 -0.07355876 -0.0053105205 0.011912049 -0.109244816
-0.02197446 -0.09195768 -0.023593288 -0.020713853 -0.038553275 -0.07301768 -0.035350688 -0.12827224
-0.07774582 -0.020022199 -0.15086807 -0.008410568 -0.11667919 0.022573963 -0.08901774 -0.028921772
-0.0588991 -0.054806795 -0.08210862 -0.032486245 -0.1643091 -0.09640425 -0.08199383 -0.043011278
-0.09645576 -0.107284375 -0.042633876 -0.07544348 -0.07050107 -0.06456833 -0.00430001 -0.1434778
-0.07478341 -0.07608078 -0.13637695 -0.17316991 -0.039469287 0.039537847 -0.057227682 -0.12440786
-0.03595192 -0.12039793 -0.02568947 0.0020994619 -0.03215621 0.017960697 0.047445793 -0.076766476
-0.02199129 -0.1275624 -0.09258281 -0.052757047 -0.15757717 -0.07678873 -0.15010855 -0.03934467
-0.088804476 -0.0027630255 -0.02629167 -0.13902548 0.05576068 0.011359997 0.038602322 -0.064942956
-0.12216634 -0.063584104 -0.17518501 -0.085361086 -0.05823715 0.019581854 0.056212462 -0.041999098
-0.10161293 -0.06428339 0.06072589 -0.12708741 -0.08779953 -0.105150834 -0.009102158 0.032042593
00000000: 7075 7cbc dd41 2dbd 64a5 a3bd dec5 e2bd
00000010: b3ae c8bd 660c 23bd db50 9abc a8d4 333d
00000020: d61b 4ebd bba6 10be 48c6 c33c 8826 97bc
00000030: aec3 0fbe 1f7e e8bd 599b 02be eb95 00be
00000040: f888 efbd 8475 d33c 5390 03be a67e b5bd
00000050: 23c4 f8bd febf 343d d40f bebd b12f 2abd
00000060: 467d a0bd b254 eabd 4b84 563b e083 d23c
00000070: 8e62 8abd 7b37 a2bd e477 4bbd 0c6b 50bd
00000080: 8931 94bd d3e3 86bc 611b fcbc dedc 7dbd
00000090: b17f 0fbe a098 dbbd e806 9fbd 0058 033a
000000a0: ff4c a6bc b19f 1abe 4832 cfbd e255 12be
000000b0: 5889 3fbd b8f2 eb3c 2139 cebd d08d 20bd
000000c0: 422a 94bc 08d2 41bd e42d ff3c a6af 99bd
000000d0: 1feb 113c 78bd 5e3c a107 91bd 9c7c 26be
000000e0: 805b 03be 0a28 be3c 9bf3 9fbd f63a f9bd
000000f0: c064 623b ec86 44bd 5559 dfbd 4618 83bd
00000100: 567e f1bd 745b 93bd b983 df3c aca3 0abd
00000110: 2a7a 52bd f7fd 9dbd 1a27 b7bd d882 c83c
00000120: eb06 56bd c1a5 9fbc 293a fabd b1ef c5bd
00000130: 4a58 49bd 02f8 0cbe f819 fbbc facd 963b
00000140: de9e 0fbe a643 9ebd ff3f 97bc dca5 cdbc
00000150: 535c d9bd 3b0c f2bd a2b7 0f3d 9b05 0abd
00000160: 2b1f f2bd 5bb0 47bd 253a cabd e34b 12be
00000170: 8553 c0bc 94fc 9b3b ab0c 03be 5a2d 10bd
00000180: 7cd5 c9bc d450 ffbd 1b98 d3bd d1ff 66bd
00000190: 0b02 9abd dd9c babd 5ae2 97bd 5803 8b3c
000001a0: 472f 6bbd 8cea bcbc 755f 23be 25a0 92bd
000001b0: 131d c5bc 5c1c b93c ccfe 8a3c 1c19 05be
000001c0: d32e 06be bca1 d1bc b4e0 13bd c0ec f6bb
000001d0: d5d3 0dbe c5ac b2bd 6697 5e3d 4ae9 94bd
000001e0: 5a20 aabc d8a3 89bc 0ade 0cbe 7d15 62bd
000001f0: 0a8c 9fbc 0c0f f1bd 830b 83bd 99e0 c1bd
00000200: e70e 1ebe 2784 d5bd 3044 04be 4306 2ebd
00000210: 9c6f 583d d9e0 89bd 724b f9bd 1230 b0bd
00000220: 0bed 73bd d877 16bc 8721 c4bd b6f2 d5bd
00000230: 1498 f1bd 64c6 12bd d353 15bd 7a37 64bd
00000240: 38fb 5cbd b21a 6ebd 24f4 42bd 5085 39bc
00000250: 4aae d5bb 31bc a4bd 7504 e9bd dcb0 bbbd
00000260: 5035 e4bd ff1c 1bbe 5840 09be 694c b2bd
00000270: 444b b13c 3217 3cbd 75b5 e0bd cea0 09bd
00000280: 9107 39bd 576f c5bd 1566 98bc a10d 6dbd
00000290: b245 92bd 0a15 14bd aad1 7abd b893 bbbc
000002a0: fef9 233d 9095 ffbc 75f6 00be 5824 053d
000002b0: faa5 96bd e003 aebb c12a 433c bfbb dfbd
000002c0: c803 b4bc 4f54 bcbd b646 c1bc 19b0 a9bc
000002d0: 0aea 1dbd 4b8a 95bd e2cb 10bd cc59 03be
000002e0: 3339 9fbd 9805 a4bc 297d 1abe 7bcc 09bc
000002f0: 80f5 eebd 08ed b83c ef4e b6bd 5aed ecbc
00000300: 2f40 71bd 177d 60bd 9028 a8bd 4c10 05bd
00000310: a540 28be 976f c5bd 62ec a7bd 982c 30bd
00000320: 998a c5bd e9b7 dbbd dca0 2ebd 1c82 9abd
00000330: dd62 90bd 673c 84bd 19e7 8cbb d8eb 12be
00000340: 0b28 99bd 3dd0 9bbd 66a6 0bbe 7453 31be
00000350: 8caa 21bd 70f2 213d 9367 6abd 8cc9 febd
00000360: 5242 13bd 3193 f6bd b972 d2bc 2097 093b
00000370: 3bb6 03bd 5022 933c 8556 423d be37 9dbd
00000380: 1427 b4bc b89f 02be 0e9c bdbd c617 58bd
00000390: e95b 21be 6943 9dbd 0eb6 19be e027 21bd
000003a0: 1fdf b5bd e013 35bb a161 d7bc b25c 0ebe
000003b0: 5065 643d 481f 3a3c 781d 1e3d d000 85bd
000003c0: 5932 fabd 6238 82bd b363 33be cbd1 aebd
000003d0: 148a 6ebd 206a a03c 0a3f 663d 3f07 2cbd
000003e0: 711a d0bd 03a7 83bd b6bb 783d 3423 02be
000003f0: 3dd0 b3bd 5259 d7bd 3821 15bc 183f 033d

linear2.bias f4 [3]
-0.14100064 -0.08206504 -0.016596036
00000000: 7962 10be b711 a8bd 69f4 87bc
